weights/base.pth (torch, 71850 bytes, 6 tensors)

fc1.weight f4 [128, 4]
00000000: 992c 803e 467a 5a3d d017 a53f 01a6 663e
00000010: cce1 613e 56bd d1bc 137d bcbf f2c4 afbd
00000020: 8eb8 ca3d 6c17 5abd e5fc 113f 5a12 f53d
00000030: 33bd f5be 3097 c6bd 9bd0 e23f a573 de3e
00000040: f2f5 7f3d da54 9b3d 744e 913e 7452 7ebe
00000050: 7a97 ee3e 8659 333e 30a3 b03f 26d4 163e
00000060: 190a 653d e8b9 1e3e daff af3f 7190 943e
00000070: eabb 093e 8375 8bbd ae35 0140 1f53 083e
00000080: 3ebc 4abf 5c6c bb3d 2f5e 843f 5dbb 113e
00000090: d080 3b3e ae5d 973d 8a1d 623f ef67 c4bd
000000a0: 5c71 e0be 8438 2b3e 44d5 f5bf 3bfc 1abe
000000b0: e743 ba3e c382 a93e 816f 51bf 0597 4b3e
000000c0: a809 33bf 0bb5 a7be b3d8 4c3f 46fa 11bf
000000d0: 8dd1 7ebe 84e2 d93e 5dc2 bf3e c24c 143f
000000e0: 90c8 a83d 78b9 4d3d 0fc4 773e 0ab7 8abe
000000f0: 10c4 e73e a3da cbbd b9ab 89bf 1251 94be
00000100: f2ed 053f e776 8d3e 31b9 3e3e 7d75 b13e
00000110: 5e91 16bf abae 193e 76d2 f5bf 481b 9a3d
00000120: 09c0 253f fae2 e73e aa39 c93e 7e32 923e
00000130: c15e 00be 5028 dabb 3934 d13f d616 a03e
00000140: 7f33 cfbe 9aff 443e 692d 63bf bc83 b8be
00000150: e02f 45bf b631 abbc a0bc 493e 4a50 edbe
00000160: 4252 b73e 473c 48bf 5e5c 2ebf b380 8cbe
00000170: 1bab efbd bd55 893d e60c b4be e135 b8bd
00000180: fce5 5e3e 3cc5 44be 533b 2ebf 7086 633f
00000190: 3a84 873e 18a7 fa3e e9c6 703d 2ef4 143c
000001a0: 9965 1b3e ff4a 67be e844 893d 093d d83d
000001b0: ceda a0bd eaef ce3d ffb6 603f e3ae 7d3e
000001c0: 7533 173e c4a9 ddbe 9893 a1bf cc93 51be
000001d0: 6fd3 a43d dcaf dc3e fd2b 36be 7954 18be
000001e0: be32 95be d7a3 033f c181 873f 0434 103e
000001f0: 29af 393e 133c b6be 1f4a b6bf 74b2 c7be
00000200: 9d59 a4be ca1a d53e 6077 a2bf 7048 903e
00000210: b682 75be dc81 673e c160 c23e aec4 01bf
00000220: eaaa aabe befd 7fbe b552 da3f 719c 243f
00000230: 0152 d13c 9040 d0bd ad70 0c40 d0f0 883e
00000240: 69f7 f23e a1ad 0cbd 8eea 78bf 7473 d83e
00000250: b9d9 83be 8ef4 a0bd 2748 efbf 1695 1d3e
00000260: 102f d53d 9bc7 4abe 8721 9c3f 127d 2ebd
00000270: 2bf7 88be 723d 09bd 9065 4f3f 07aa 603e
00000280: 70a1 ccbd b03e 7ebd 403b f23d f015 d4bd
00000290: f68c 903e d626 c9bd c51f 5fbf 19af a7bd
000002a0: 68bc d03e d29b a73e 5e3e b53f 7bd7 9f3e
000002b0: 4bc0 c73e a524 fa3d 1ca3 ea3f 4b72 583e
000002c0: d047 a5be cf98 013f d302 9abe d5bb 713e
000002d0: 47d6 09bf 3b61 82be 9c26 45bf 175b 8dbe
000002e0: a9b0 373d 21d9 f7bd 62a7 073f cd9a e03e
000002f0: 8ca6 513e 6424 39bf 6206 78be 2fd2 f13d
00000300: 9f0f 823e 1732 073f d677 4abf dbaf 0f3f
00000310: 3efe cbbe 7858 073d 1f22 c6bf 25fd cbbd
00000320: cc0d 25bf e675 20be ee75 183f 356b 3f3f
00000330: 40d3 b93d 6fa2 c6bd 0f67 473f 9e3a 44be
00000340: 0539 c2bd fc01 02be d5b4 0a40 6782 c9bc
00000350: c84d 383c 16ad 52bd 86f0 e13f 5d68 1e3e
00000360: 71f5 2fbe 33e7 8d3d 3f0f 51bf cd0b e6bd
00000370: 4fc0 11be 3b56 223e ac9c 1c3f 16e8 b3bd
00000380: f941 00be 099f 413e a9ff 0b3f 4a08 b9bd
00000390: 712e 1fbf 316a 8a3e 1714 39bf 820a 23be
000003a0: 176a 27be 1a7f 153e 7b56 a03f 5368 d83e
000003b0: 9934 fd3e 99ac 22be c529 91bd 6511 c0be
000003c0: 2ced 74be ac9f 223e b4b3 b63e f84b 773e
000003d0: ebe8 e9be cd10 ad3e c329 5e3f 37d2 383d
000003e0: 8277 4f3e 26ca 61be da88 963f 21a0 1e3d
000003f0: 2766 47be 46af b33e a9bd 233f 7e9f a7bd
0.25034025 0.053339265 1.2897892 0.22524263 0.22058791 -0.025602978 -1.472567 -0.08582486
0.09898482 -0.053244993 0.5702651 0.11966391 -0.4799591 -0.096968055 1.7719911 0.43447605
0.06249041 0.075845435 0.28380167 -0.24836141 0.46599942 0.17514619 1.3799801 0.14729366
0.055917833 0.15500605 1.3749955 0.2901645 0.1345059 -0.06809523 2.0189013 0.13312958
-0.79193485 0.09151527 1.0341243 0.1423163 0.18310857 0.07390915 0.88326323 -0.09590136
-0.43836486 0.16720778 -1.9205709 -0.15135281 0.3637993 0.33107576 -0.81810766 0.19881828
-0.6993661 -0.32755312 0.80018157 -0.5702251 -0.24884625 0.4255563 0.37452975 0.57929623
0.08241379 0.050225705 0.24195884 -0.27092773 0.4526677 -0.09953811 -1.075553 -0.28968102
0.523162 0.27629778 0.18625332 0.3465995 -0.5881556 0.15008037 -1.9204853 0.07524735
0.6474615 0.45290357 0.39301807 0.28554147 -0.12536146 -0.0066576377 1.6344062 0.31267422
-0.40468976 0.1923813 -0.88741165 -0.36038005 -0.77026176 -0.020897727 0.19700861 -0.46350318
0.35804945 -0.78216976 -0.6810969 -0.2744194 -0.11702558 0.067058064 -0.3516609 -0.089946516
0.2176742 -0.19215864 -0.6805927 0.8887701 0.26468068 0.48955607 0.058783446 0.00909142
0.15175475 -0.22587202 0.06702596 0.105585165 -0.07854234 0.10104354 0.8777923 0.24773745
0.14765723 -0.43293583 -1.2623167 -0.20466536 0.0804814 0.4310292 -0.17790218 -0.14875974
-0.29140276 0.51421875 1.0586473 0.14082342 0.18133225 -0.35592708 -1.424137 -0.39003336
-0.3209962 0.41622 -1.269268 0.28180265 -0.23975644 0.22608131 0.37964442 -0.50690734
-0.33333522 -0.24999139 1.705649 0.6430121 0.025551798 -0.10168564 2.1943772 0.26746225
0.47454384 -0.034345273 -0.972329 0.42275584 -0.25752047 -0.07859145 -1.8693894 0.15388903
0.10409367 -0.19802706 1.2197732 -0.042599745 -0.26751074 -0.033505864 0.8101435 0.2193986
-0.09991729 -0.062071502 0.11827707 -0.10355747 0.28232545 -0.098218605 -0.8715785 -0.08187694
0.40768743 0.3273607 1.4159658 0.31219086 0.39013895 0.12214021 1.8331027 0.2113735
-0.3228135 0.5062379 -0.3008028 0.23606808 -0.53842586 -0.25464806 -0.7701204 -0.2760856
0.04484621 -0.12101961 0.5298978 0.43868104 0.20473689 -0.7232115 -0.24221185 0.118076675
0.25402543 0.52810806 -0.79089105 0.5612771 -0.3984241 0.033043355 -1.5479163 -0.09960393
-0.6447418 -0.15669975 0.59554946 0.7477296 0.09073496 -0.096989505 0.7789163 -0.19162986
-0.09483532 -0.1269607 2.167287 -0.024598313 0.011249013 -0.0514346 1.7651527 0.15469499
-0.17183472 0.069288634 -0.8166389 -0.112327196 -0.14233516 0.15853207 0.6117656 -0.08784501
-0.12525167 0.18908323 0.5468698 -0.09034784 -0.6218024 0.27034143 -0.7229628 -0.15921977
-0.16349064 0.14599267 1.2526392 0.42267093 0.4945419 -0.15886153 -0.07088045 -0.3751327
-0.23918599 0.15881222 0.35683978 0.24150074 -0.45685515 0.3380188 0.86782473 0.04512235
0.20260432 -0.2204977 1.1760514 0.03872693 -0.19472562 0.3509466 0.63961273 -0.081847176

fc1.bias f4 [128]
00000000: 7a1d 143e b67a 28bd 603e 023f b82a 2abf
00000010: 454a 98be dcd3 78bf caf7 1b3e 005a c7be
00000020: 47c9 17be cb16 d5bd f6c3 ed3e 371c 18bf
00000030: 91a1 293e d9cb 11bf 51d2 e13d 3d16 16bf
00000040: 10c7 c4bd a8ea c43e 3aa8 a8be f631 203f
00000050: 45fa 4dbf ab51 27be 8698 67bd 86cd eebe
00000060: af04 2c3e 62a0 43bf fc76 bb3e 4406 f53e
00000070: db01 163f 0e60 b4be 8d79 023f df54 d0bd
00000080: 2a16 793d 4b7d 06be 3e3a f9be 5069 d3be
00000090: c4d9 7a3e db98 fd3e 36c9 1d3f e49c 48bf
000000a0: 6830 dbbe 46dc 6fbe 64d4 7cbf 6268 0ebf
000000b0: e040 873d c00f ebbe d386 d23e 6cfb 91be
000000c0: 92ea 1ebe c987 c53e ce5d 4e3c a7d0 b93e
000000d0: f494 a3be 33ae f03e 3713 f9be b88a b03e
000000e0: 1bc7 f8bc 0225 d4be 5dab c13e 8d6a 81be
000000f0: ea22 ccbe 229d 9cbe 76c5 f83e ba66 7ebd
00000100: 574a d4be 8e48 32be d52f 2f3e b0c3 673d
00000110: f34f c9be ea54 c3be 3c6e 1a3f d760 ed3e
00000120: 9150 663e 3ee4 013f 651c d0be 57ed 81bf
00000130: 7353 623e edb5 b2be cbde a53d e447 c63d
00000140: 6215 8dbe cad1 cd3d cb85 b03c f773 f03e
00000150: 9dbd 063f b510 00bf 5114 90be 1411 febe
00000160: 9f20 21bf 9980 26bf cac0 41bf 0765 ef3e
00000170: 80e6 06be 4e70 dbbe 98b8 23be c276 4dbe
00000180: d125 38bf 9724 393d 4ba0 313f c26f e8be
00000190: 19d9 abbe e646 23bf c280 933e 53d3 f0be
000001a0: f6f1 d13e bf49 5a3e 0373 1c3e 2751 00bf
000001b0: 0d33 06bf c9eb 093f 5395 6c3e a343 2ebf
000001c0: c074 ab3d 12de 2ebf aca4 0d3f 6237 c23e
000001d0: a175 efbe 7966 b0be b034 f53e 74b4 083f
000001e0: 8487 db3e 1514 d2be cff5 1c3e a3c3 363e
000001f0: 791b 4bbe dd4b e9be 2e47 51be 4930 933d
0.1446437 -0.04113265 0.50876427 -0.66471434 -0.29744163 -0.9719827 0.15231243 -0.38935852
-0.14822875 -0.10404738 0.4643857 -0.5941805 0.16565539 -0.5695167 0.11026443 -0.5862768
-0.09608281 0.3846028 -0.32940847 0.62576234 -0.80460006 -0.16339748 -0.056541942 -0.46641177
0.16798662 -0.764166 0.36614215 0.47856343 0.5859658 -0.35229534 0.5096672 -0.10172438
0.060812153 -0.13133733 -0.48677248 -0.41291285 0.24497133 0.49530682 0.6163515 -0.78364396
-0.4281037 -0.23423871 -0.9876158 -0.55628026 0.06604171 -0.45910454 0.41118488 -0.28512132
-0.15519169 0.38580158 0.012595607 0.36292002 -0.3194958 0.47007903 -0.48647472 0.34480834
-0.030368378 -0.41434485 0.37826052 -0.25276604 -0.39870387 -0.30588633 0.4858815 -0.062109686
-0.41462967 -0.1741049 0.1710809 0.056583107 -0.3931881 -0.38150722 0.60324454 0.46362945
0.22491671 0.50738895 -0.40646663 -1.0150555 0.22102146 -0.34904423 0.08099135 0.09681681
-0.27555376 0.1004978 0.021548172 0.46963474 0.52633077 -0.5002549 -0.281405 -0.49622405
-0.629404 -0.65039974 -0.756848 0.46756765 -0.13173866 -0.4285912 -0.15988386 -0.20064834
-0.71932703 0.04520091 0.6938521 -0.45397764 -0.3356407 -0.6378006 0.28809172 -0.47036228
0.41004914 0.21317194 0.15278248 -0.5012383 -0.5242165 0.53875405 0.23103838 -0.68071955
0.08371878 -0.683076 0.55329394 0.3793288 -0.4676943 -0.3445318 0.4789176 0.5340035
0.42876828 -0.41030946 0.15328144 0.17848067 -0.19834699 -0.45565692 -0.20437309 0.07186944

fc2.weight f4 [128, 128]
00000000: 290e 8ebf 8dca 4f3f 591d 27be f7c4 6d3f
00000010: 905f d0be d862 76be 0f38 bebe 0694 693d
00000020: c19a 173f bf7f b9bd baa5 443e 546b ae3d
00000030: f898 39be e67b fd3c a53d 803d eecc 1a3f
00000040: d172 4cbf 03f6 cd3e d07c 03bf 5ad4 83bf
00000050: 3030 8c3e d689 7b3e 5385 303f 4c64 c73c
00000060: 05df 053e 8c19 debe 33ae ec3c 91a9 c9be
00000070: 447a 9c3e 310c 3fb8 bd37 9cbe 9e66 583f
00000080: b7b3 943e 534b 37be 4bc3 873f 0009 3a3c
00000090: 3320 073f f3c9 af3e 6f30 bfbe b04f 243f
000000a0: bae1 fcbc 1c5b ef3e e1b7 26bf d234 1f3b
000000b0: 71b0 d63d c824 0c3f f32a 40bf d3cc 93be
000000c0: 8bd6 45bd eb5e 5f3e bce7 963e 226d 80be
000000d0: 6ee9 903e 7e6d a5bf 92e7 c03e 0931 16be
000000e0: e1e8 27be 4ad0 c93e 9941 6fbf f32b 0a3e
000000f0: 7442 f73c 57b5 1e3f ad4f 51bf ed37 043e
00000100: f205 9b3f a924 313f b1a5 7bbf 2fe7 1cbe
00000110: 4797 c23e 2d3e 4ebe aec6 33bf a17b 3ebf
00000120: 691e ffbd c9a1 df3e 80a5 673a 695d 65bf
00000130: 064a 0b3c 953f eabc c0f6 10bf 2d87 fb3e
00000140: 296b 113f 5b7e f5be b97d 7d3e bf63 e73d
00000150: 2f2c 6e3e 687e 0c3f 2f6c 85be 2e71 e93d
00000160: 9b56 aabe 8419 063f 2ffb 233e 4e9f 243e
00000170: 5d05 40bf efc4 ccbe b293 0ebe 989c ed3e
00000180: 97b2 ca3e 4702 8f3e a66a e53e 2995 aa3e
00000190: 95a1 683e f033 0d3f 2070 223c 67f0 e03e
000001a0: 8156 f9bf b176 493e a24b a83d 10ec 263f
000001b0: ac29 883a e167 11c0 1bb9 d73e f99d d23e
000001c0: 4440 85bd 2df2 293e 5f91 9b3e f8be b3bd
000001d0: ba8c 503e 0918 9e3e 7217 4e3f 224b c3bf
000001e0: 77ea 2fbe c948 523f eb97 09bf e9d9 6d3b
000001f0: 80e9 cebf 5a6f 6b3d 8e55 2b3f 557a e83d
00000200: 0ec7 07bd 3679 b5bd d1c5 37bc 2273 cebf
00000210: e9a9 aabc bdfb 16c0 edf3 cfbd 10b3 a1c0
00000220: 109e 1d3c 7a32 573d 74fa 2f3e 0a55 6ebe
00000230: 17b6 c6bc defb 863d 621a bd3d af98 91be
00000240: 2514 3bbc 546e 3e3d 1b9f 003d e7cd 1e3e
00000250: d659 803d b9f4 4cbe 99ef 2bbe 2ffd 1abd
00000260: d4ee c03d 4bf0 0fbf f89d e23c d707 923d
00000270: 064a 7c3e 22aa 18be 8f97 be3d badf 8fbe
00000280: 814c 413d d5b4 993d b867 93be 35cb 4fc0
00000290: fd91 f93d 2bff 6c3c 9c66 2a3e 8e08 c1be
000002a0: 8e58 4c3d 0255 bcbc eecd b6bf 54da 27bf
000002b0: 2c52 843d 4649 d63d 8dd2 4b3a 198d e43d
000002c0: 1185 8cbd be62 153d d034 33be 6432 8d3d
000002d0: 58ca 5dbf 5fa2 913d 4210 133e 8be2 a53d
000002e0: 27fe 693c e9da 89bd 45cd 803d b095 cf3d
000002f0: 12ca 5d3d d069 aabd 59e2 823a 547f 063e
00000300: 20cc 78bf 5ea4 e43d 03cb 403e 75cf c3bc
00000310: f596 3ec0 147c 123e 0ebd 4fbd 4663 0cbd
00000320: 2b1f 833d dd51 3d3d 366c 91bf bf0f 43c0
00000330: d749 ad3d 7620 be3b cd4c 323c 7331 f33d
00000340: 1a4e 37be c14c c23d ad70 2b3c 1814 783d
00000350: 9f6e 033e 5956 20be 928b 013e 0cf0 1e3e
00000360: f613 6ebb cf30 0abd 4ca5 99bd 4aba 013d
00000370: 75f4 03be 7f73 88bf 13c5 5dbe 12ac e73d
00000380: 3711 68be c040 403c a916 fd3d 5123 52be
00000390: eef4 17be f17b c1be a508 7a3e f2ca ddbf
000003a0: 46c6 883d 21a3 153e 8ff7 04bc e249 b3be
000003b0: 6d61 eabc 1f12 143e 0459 773e 8a20 83be
000003c0: 5ded 90bd 4db9 613d ba65 493e a0cc 333e
000003d0: 6f07 dabf ce63 8f3e ca92 3b3e 8100 a5bc
000003e0: 4f2c e83d 7333 9dbe 585c eebc 7ee6 f63d
000003f0: 75ab afbe 1855 813c d506 8c3d b833 303d
-1.1098071 0.8116844 -0.16319789 0.9287867 -0.40697908 -0.24061143 -0.37152144 0.05702593
0.5922051 -0.09057569 0.19203845 0.08516565 -0.18124759 0.030942868 0.06261758 0.6046895
-0.79862696 0.40226755 -0.51362324 -1.029918 0.27380514 0.24564299 0.68953437 0.024339817
0.13073356 -0.43378866 0.028891658 -0.3938718 0.3056203 -4.5549303e-05 -0.30511275 0.8453158
0.29043362 -0.17899828 1.0606474 0.011354685 0.5278351 0.34333763 -0.3734164 0.64184093
-0.030869354 0.46749198 -0.65124327 0.0024292958 0.10482872 0.54743624 -0.75065535 -0.28867206
-0.048300307 0.21813552 0.29473674 -0.25083262 0.28303093 -1.2924039 0.37676674 -0.14667143
-0.1639743 0.39416724 -0.9345947 0.13493328 0.030183055 0.6199545 -0.817622 0.12911959
1.2111189 0.69196564 -0.982997 -0.15322565 0.3800604 -0.20140906 -0.70225036 -0.7440739
-0.12456972 0.4367812 0.0008836612 -0.8959566 0.008501535 -0.028594771 -0.5662651 0.49126568
0.5680414 -0.47947964 0.2475499 0.11298322 0.23259042 0.5488038 -0.260591 0.113985404
-0.332692 0.52382684 0.16013788 0.16076395 -0.75008184 -0.39993998 -0.13923529 0.46408534
0.39589378 0.27931425 0.4480793 0.33316925 0.22717889 0.55157375 0.009914428 0.43933412
-1.9479524 0.19674183 0.08217551 0.6520395 0.0010388396 -2.2719653 0.42133412 0.4113615
-0.06506398 0.16596289 0.30384347 -0.08776659 0.20366183 0.30877712 0.80504525 -1.5257304
-0.17179285 0.8214231 -0.53747433 0.0036293215 -1.6165009 0.05747924 0.6692742 0.11351458
-0.033148818 -0.0886101 -0.011216597 -1.6128886 -0.020832973 -2.359115 -0.10153947 -5.053108
0.009620205 0.052538373 0.17185384 -0.23274627 -0.02425675 0.065910086 0.09233548 -0.284368
-0.011418377 0.046491936 0.031401735 0.15508233 0.06267135 -0.2001523 -0.16790618 -0.03783911
0.09420553 -0.5622603 0.027663216 0.071304016 0.24637613 -0.1490865 0.09306251 -0.28100377
0.0471921 0.07505194 -0.2879007 -3.2467778 0.12186048 0.014465134 0.16640705 -0.3770184
0.04988914 -0.022989754 -1.4281595 -0.6556752 0.064609855 0.104631945 0.000777521 0.11159725
-0.06861318 0.03647112 -0.17500615 0.06894377 -0.8663688 0.07111048 0.1436167 0.0809985
0.014281786 -0.06731207 0.06289152 0.101359725 0.054147787 -0.083209634 0.000998567 0.1313451
-0.9718647 0.11164163 0.18827443 -0.023902634 -2.9779637 0.14305145 -0.050717406 -0.034274362
0.06402429 0.04622065 -1.1361148 -3.047836 0.084613495 0.0058022095 0.010882569 0.11874666
-0.17900887 0.09487296 0.010463876 0.060566038 0.12835167 -0.15657939 0.12650898 0.15521258
-0.0036327816 -0.033737954 -0.07502231 0.0316718 -0.12886222 -1.0660247 -0.21657209 0.11312117
-0.22662817 0.011734188 0.12357838 -0.20521285 -0.14839527 -0.37789872 0.2441736 -1.7327559
0.06678443 0.1461301 -0.008115663 -0.35017306 -0.02861091 0.14460038 0.2415505 -0.25610763
-0.070765235 0.055108357 0.19667712 0.17558527 -1.7033519 0.28005832 0.18317714 -0.020141842
0.11336576 -0.30703315 -0.029096767 0.12055682 -0.343105 0.015787646 0.068372406 0.043018073

fc2.bias f4 [128]
00000000: 6b8d 8dbc 52fd 663e 723e 83be bd42 acbd
00000010: 0991 4bbd 9cf9 dc3d 726a ddbc ba79 483e
00000020: 2cb4 62be 8a98 8d3e 9399 3dbd ec60 8d3d
00000030: 8ff0 fcbc d315 4ebe 381b b6bd f8c7 2abe
00000040: b486 aabd fea8 493e b1a1 e6bc ae37 893c
00000050: 551a f4bc 7ced 873d 7681 893d 8d92 33be
00000060: 000b c0bb a1bc 2b3e c16a 31bd 1b03 753e
00000070: f776 093d e907 4f3d ea17 9e3b 1e99 b03e
00000080: 2e1d 993e 537f a93e 6109 19bc 3bb1 6dbe
00000090: 3a1b ecbd 9f87 173e 085c 8abd 6de1 fcbc
000000a0: d1aa 7f3e ead4 d1bd 2113 6d3d 9559 97be
000000b0: 387a 5abc 7dbc d5bd f4ce 003e 0b29 2d3c
000000c0: afa6 9d3e 53b8 ab3e a38f 763e 496e a73c
000000d0: 3d67 cabd 945f 94bd b7a7 fc3d 6951 7ebd
000000e0: 769b bc3e 1039 563e 5df9 f9bd c808 c5bd
000000f0: bcbc cabb ef7f 863d d50a d0bd 598a f73d
00000100: ba83 cfbd 7faa e6bd 6bad 6cbb 22f8 313e
00000110: 6cb7 a43e 8a88 603e 87d6 22bd ef73 2bbe
00000120: 5fb7 b5bc 4be6 693e dbcb d8bc bdcb 193d
00000130: b411 093e 0262 7a3d 3dfd 393e 1325 3cbd
00000140: 8e2c 93be 84b0 8f3e bbdc 89bd c04c 11bd
00000150: c0da dfbc 2c3c d5bc 4ff3 b83e a135 f1be
00000160: 2b15 a13e e26f 9c3e 3333 dbbd 8a4b a43e
00000170: cc26 9a3e b0a7 d3bd 5360 73be fca7 3ebd
00000180: d98c 97bb 6b45 0cbd 2343 d23c 0d99 563e
00000190: 5a3d f1bc d04c 99bd 4ffa 50be db75 913e
000001a0: a5cf 933e 0d88 39bc 9a43 78bd 090e fbbc
000001b0: cc31 823e 9278 54bc 2c86 fc3d 3bf9 b1bd
000001c0: a37f 11bd e8b5 a83e 7138 b33d a855 473e
000001d0: 96bc a63b 643e 1bbd 1a2f 803e 238f 9e3e
000001e0: a1e3 a93e fee7 57bd c0a2 f33a 3f92 5c3e
000001f0: 836f 96bc d3a6 0bbf 7b9a 84bc 40cd 9e3e
-0.017279347 0.22557572 -0.2563358 -0.08411167 -0.049698863 0.10789797 -0.027028296 0.19577685
-0.22139043 0.2765544 -0.046289038 0.06903252 -0.030876426 -0.20125513 -0.0889191 -0.16677845
-0.08326474 0.19693372 -0.028153272 0.016750183 -0.029797712 0.066370934 0.06714146 -0.17536373
-0.0058606863 0.16771175 -0.0433147 0.23926966 0.03356072 0.050544653 0.004824628 0.3449182
0.29905075 0.33104953 -0.009340615 -0.2321214 -0.115286306 0.14797829 -0.06755835 -0.03086921
0.24967505 -0.10245688 0.05787957 -0.29560533 -0.013334803 -0.10436342 0.12578946 0.010568867
0.30791232 0.33539066 0.2407823 0.02043833 -0.098829724 -0.072447926 0.123366766 -0.062089358
0.36837357 0.20920205 -0.122057654 -0.096208155 -0.0061870497 0.0656737 -0.10158316 0.120869346
-0.10132547 -0.11262988 -0.0036114107 0.17379811 0.3217119 0.21927086 -0.03975537 -0.16743444
-0.022182165 0.22841756 -0.026464393 0.037547816 0.1338566 0.061128624 0.18163009 -0.045933794
-0.2874493 0.28064358 -0.06731554 -0.035473585 -0.027325988 -0.026029669 0.3612313 -0.47111228
0.31461462 0.3055411 -0.10703125 0.32088882 0.30107725 -0.10334718 -0.23767214 -0.04654692
-0.0046249446 -0.03424589 0.025666779 0.20956822 -0.0294482 -0.07485354 -0.20407985 0.2841023
0.28869358 -0.011323941 -0.060611345 -0.03064634 0.25428617 -0.012968199 0.12330279 -0.08690115
-0.035522114 0.32951283 0.08751 0.19466269 0.005088399 -0.037901297 0.25035936 0.3096858
0.3318148 -0.05271148 0.0018587932 0.21540163 -0.01836372 -0.5455143 -0.016186943 0.31015968

fc3.weight f4 [2, 128]
00000000: c1d1 33bf 734b 4a3f ba5d eebf ac58 f1bf
00000010: 88af 753f c771 6a3e 0703 cabd 435a eb3e
00000020: 57a9 a7bf 1ec6 2f3f c9bd dbbf c2f5 673e
00000030: 727d d4bf 651a 9b3e 007a 2ebd 38b0 debe
00000040: ea17 5cbd f173 433f 5b8a 753d 8e7b 7cbd
00000050: d6a8 09bd 566c 88bd 13ab fabe 93ce f7bf
00000060: 2f01 b53c 3d69 193f 69e7 0dbd 5d69 823f
00000070: 5946 f8bf 5988 9fbf 499e 5b3d c6c7 253f
00000080: 5e52 0c3f 86cc 603f a2fc 6fc0 6992 dabf
00000090: c46c 753b f93e 833f d5aa aa3d 3826 0a3e
000000a0: 15b3 583f c6b9 523d 09b8 89bf e32f b1bf
000000b0: 45d4 8dbf 91ec f439 3758 4a3e dc39 a9bd
000000c0: 56d2 123f 53fd 6b3f d19d 5c3f afde 8ebc
000000d0: 17ca 903d 443e d83c bf97 ad3e 982d 90bf
000000e0: 96ca 643f 9a8e 9a3d 8977 e1bf 173f 62bd
000000f0: 98ae 633d eb19 ddbb fb6e 2ebd 3d27 70bf
00000100: c07b e03a 0530 1a3d 12c6 343d 86b7 523f
00000110: dd1a 463f 8c43 6f3f 33cc 8cbd a290 e7bf
00000120: 6549 44bd 6a01 903f 525e 97bd 9762 71bd
00000130: 2111 14bf 10e6 963d 9cb4 6b3f 1850 27bd
00000140: dd96 93bf 223b 4b3f 144c 1abd a54c 8bbd
00000150: 5598 03bf 40af 2d3b 1d7a 0a3e a164 e7bf
00000160: 32f0 343f 1087 533f c476 08c0 7727 773f
00000170: fa13 813f 0758 bfbf 4405 dfbf eae1 82bd
00000180: 796b d2bf 2836 85c0 3d2f 843e 9a9d 1c3f
00000190: f0c8 97bd e88c 8fbd 61d3 64bf ba7e 6b3f
000001a0: e933 353f 92ec ffbf 8423 53bd 1773 d23c
000001b0: 3b82 03be 09b0 93bf 2ead cfbe 8c3b e1bb
000001c0: 306d 76be 574b 073f 7ea6 04bf cde9 2a3f
000001d0: cc6d 973c af0f f63c 9942 433f bc07 5e3f
000001e0: f5c1 613f 4054 ff3c 4fa6 a33d 9304 303f
000001f0: c93a d83a f87e f5bf c305 88bc 8255 313f
00000200: f69f ccbf 780b 6a3f e478 f3be 33f6 5fbf
00000210: 6307 7abf 21e2 01c0 e888 85bd 524b 363f
00000220: 0d48 b73d 9962 153f 4cc8 f2bd 46a5 f7bf
00000230: b4cf 883f edb4 36bf d181 e53c e809 a13e
00000240: 1173 b23d b314 4b3f 23c6 9dbd a700 9d3d
00000250: 299f 9a3d 0afb d83c 5088 08be 9e14 c5bd
00000260: 078b 45bd 2ebc 29bf 40c9 3c3d 5816 363f
00000270: d9d9 7a3f cb07 7abf 9154 49bd 5322 573f
00000280: 69de 0b3f 14b6 463f 11cd c13f 1682 b1bf
00000290: 5a83 6abd f0c4 a13e 8c6e c6bc 3646 ecbd
000002a0: becb 2b3f 95c7 12bc 9175 e5bf c86f 87bf
000002b0: 1b08 8a3f 507e 23bc 64df e3be d1e1 c9be
000002c0: 4973 713f eeb3 143f 95b4 3e3f 5626 6bbc
000002d0: 0012 043d 6792 9abd d141 8fbe bebf 9ebf
000002e0: 2b4a 853f 951e 133f 63a9 8b3d 1416 b1bc
000002f0: 644b 123d 2aa5 b7bc d29b 623c 9a88 bf3e
00000300: fc29 1f3d e858 6cbc 5d2c 523d a320 483f
00000310: 9cd7 4b3f 0a54 403f 2dde be3b e4f2 e1bf
00000320: 7868 09bd 4e9b 643f 4eba 553b 6b56 1cbd
00000330: 6804 7abd dd15 ab3c cb7d 483f 6954 643d
00000340: c3b9 a4c0 789b 483f 7865 a7bd 0e54 c3bc
00000350: 9fc0 d8bf f482 7bbd 03e2 1a3f e70b edbf
00000360: 6498 503f f55d 613f 34bd 59bf e36f 613f
00000370: 8eaf ab3e a289 83be 9748 7abf 05a8 4a3b
00000380: 31e6 19be 3114 2ac0 f02b cdbe 2eb1 493f
00000390: ecef e2bc 1838 58bc 3e81 9dc0 cd53 293f
000003a0: 7163 243f a1ff e73e 1864 383d 196a 3c3d
000003b0: 2e2d f83e fc3e 07c0 040f 0ec0 a296 543a
000003c0: 97f7 123f 294c bb3e d38b e5bf ce3e 4a3f
000003d0: 0faa 723d a112 65bd 88fa 4e3f 4fed 513f
000003e0: 2a1b 523f 8f30 90bd 6086 ea3b f227 4a3f
000003f0: 771d 2d3d 1672 24c0 9dc2 9c3d 2c4a 503f
-0.70241934 0.79021376 -1.8622353 -1.8855186 0.95970964 0.22894965 -0.09863859 0.45967302
-1.3098553 0.6866168 -1.7167293 0.22652343 -1.6600783 0.30293575 -0.042596817 -0.4349382
-0.053733744 0.7634879 0.0599464 -0.06164127 -0.03360828 -0.066612884 -0.48958644 -1.9359916
0.022095291 0.59926206 -0.034644518 1.0188404 -1.9396468 -1.2463485 0.05361775 0.64757955
0.5481318 0.8781208 -3.7497945 -1.7075931 0.0037448863 1.0253593 0.08333365 0.13491142
0.8464826 0.0514467 -1.0759288 -1.3842739 -1.1080405 0.00046715562 0.19760214 -0.08262989
0.573522 0.9218342 0.8617831 -0.017440168 0.070697956 0.026396878 0.33904836 -1.1263914
0.8937162 0.0754673 -1.7614604 -0.05523595 0.055586427 -0.0067474744 -0.042586308 -0.9380987
0.0017126724 0.03764345 0.044134207 0.82311285 0.7738474 0.93462443 -0.068748854 -1.8091013
-0.047921557 1.1250432 -0.07391037 -0.058931913 -0.57838637 0.073681 0.92072463 -0.040847868
-1.1530415 0.79387105 -0.03767021 -0.06801728 -0.51404315 0.0026502162 0.13523145 -1.8077585
0.7067901 0.82627964 -2.1322489 0.96544594 1.0084221 -1.4948739 -1.7423482 -0.06390746
-1.6439048 -4.162861 0.2581729 0.6117798 -0.07411373 -0.070092976 -0.8938504 0.91990244
0.70782334 -1.999407 -0.051547542 0.025689645 -0.12842648 -1.1538097 -0.40561813 -0.0068735536
-0.24065089 0.52849334 -0.51816547 0.66763 0.018484972 0.030036775 0.76273495 0.8673055
0.8818658 0.031168103 0.07990705 0.6875698 0.0016497012 -1.9179373 -0.01660431 0.692711
-1.5986316 0.9142375 -0.4755317 -0.87485045 -0.9766752 -2.0294268 -0.065202534 0.7120868
0.089492895 0.58353573 -0.1185461 -1.9347312 1.0688386 -0.7136982 0.028016003 0.3145287
0.087133534 0.7932846 -0.07703807 0.0766614 0.07549889 0.026486892 -0.13333249 -0.09623073
-0.04822829 -0.66302764 0.046090364 0.71127844 0.9798866 -0.9766814 -0.049152914 0.8403675
0.54636246 0.7762158 1.5140706 -1.3867824 -0.057254173 0.31595564 -0.024222635 -0.11536829
0.6710776 -0.008958717 -1.7926503 -1.0580988 1.0783724 -0.009978846 -0.4450637 -0.39430097
0.94316536 0.5808705 0.74494296 -0.014352402 0.03224373 -0.07547455 -0.279799 -1.2402265
1.0413259 0.5746854 0.06819417 -0.021616973 0.03571643 -0.022417624 0.013831096 0.37408906
0.0388584 -0.014425494 0.05131184 0.781748 0.7962587 0.75128233 0.0058248253 -1.7652249
-0.033546895 0.89299476 0.0032612267 -0.038168352 -0.06103936 0.020884449 0.78316945 0.055744562
-5.147676 0.78362226 -0.081736505 -0.023843791 -1.6933783 -0.061404184 0.60501117 -1.8519257
0.8148253 0.8803399 -0.85054326 0.8806135 0.33532375 -0.25690943 -0.97767013 0.0030922901
-0.15029217 -2.6574824 -0.40072584 0.7878598 -0.027702294 -0.013196968 -4.9220266 0.66143495
0.64214236 0.45312217 0.04501733 0.04599962 0.4847197 -2.1132193 -2.2196665 0.0008109604
0.5740904 0.36581543 -1.7933296 0.7900208 0.05924421 -0.05592597 0.8085103 0.8200273
0.820727 -0.07040512 0.007157132 0.789672 0.042264428 -2.5694633 0.07654307 0.8136318

fc3.bias f4 [2]
00000000: 0316 443e c341 8c3e
0.19149022 0.27393922
