weights/combined.pth (torch, 72210 bytes, 6 tensors)

fc1.weight f4 [128, 4]
000000 43 45 d3 be 79 c7 84 3e 67 28 a7 3f 29 0f fe 3e
       -0.4126378 0.25933436 1.3059205 0.4962094
000010 1f 03 0d 3e 4c e3 3c be 0c 7c 8d bf 60 ce 53 be
       0.13770722 -0.18446082 -1.1053481 -0.20684195
000020 53 7a a9 bd 73 13 07 3e a3 8c d8 bf fd 3f 12 be
       -0.082752846 0.13191013 -1.6917919 -0.14282222
000030 fd 9b 50 3d 78 fe e2 3e 70 35 86 bf e2 06 61 be
       0.050930012 0.4433477 -1.0485058 -0.21975282
000040 ae 9a a0 be fb 43 85 be ca 9c ff bf 40 9d de be
       -0.3136801 -0.26028427 -1.9969723 -0.43479347
000050 1a 49 3a be 6f d3 99 3c fa 0c f0 3f 6b 2d 7a 3e
       -0.18191949 0.018777577 1.875396 0.24431388
000060 ac a4 10 bc 3d 31 da be de 4a 8e 3f ad a7 1b bf
       -0.008828323 -0.4261569 1.1116598 -0.6080273
000070 d2 84 df 3e 8f 5c a1 be 84 67 39 bf 50 8f b5 3d
       0.4365602 -0.3151593 -0.7242358 0.08865225
000080 0e 42 40 be 2d f0 89 3e fe 45 b1 bf 83 df 8b be
       -0.18775198 0.26941052 -1.3849485 -0.27318963
000090 e6 31 e0 3e 8d 02 4d bc 11 1c 62 bf 6c 95 7a be
       0.4378807 -0.012512815 -0.88324076 -0.24471062
0000a0 9c 99 ef 3e 0a b8 be 3e 41 fd 1c 3f 52 6a b7 3e
       0.46796882 0.37249786 0.61323935 0.35823303
0000b0 82 d7 1e bd ed 59 3d bb 32 aa 57 bf 36 3d 56 3e
       -0.038779743 -0.0028892711 -0.8424407 0.20921788
0000c0 8d 99 8e 3e fd 81 2c be e7 63 06 bf 28 ce 43 bf
       0.27851525 -0.16846462 -0.5249619 -0.76486444
0000d0 d9 26 ed bd c9 45 a3 3e 1f 87 36 bf 73 79 97 3e
       -0.11579675 0.3188918 -0.7129993 0.29584846
0000e0 47 12 06 3f 66 0e 7f 3e 27 49 6a bc db 00 d0 3e
       0.5237164 0.24907836 -0.014299667 0.40625653
0000f0 97 c7 c3 be 60 3c 18 3f 3c 62 14 be 73 3d 20 3f
       -0.38238212 0.59467125 -0.14490598 0.62593764
000100 5d 89 a1 3e 34 98 78 3e d0 a3 5a bd 9a 6e e7 be
       0.31550112 0.24276811 -0.05337888 -0.4520157
000110 e2 a3 61 be df 26 d5 bd cc 58 c2 bf cb 99 91 bd
       -0.22035173 -0.10407805 -1.5183349 -0.07109412
000120 72 c8 01 3e 09 c8 1a be ed 09 ca bf f4 e3 bd be
       0.1267412 -0.1511537 -1.5784279 -0.37087977
000130 bb 58 aa bc d9 51 04 3e 53 3f 55 3f 2e 9e cd bd
       -0.020794263 0.12921847 0.8329975 -0.10039936
000140 42 11 04 3f fc 29 04 3f 7a 5b 33 3f 40 e5 62 3e
       0.51588833 0.51626563 0.7006146 0.22157764
000150 e1 1c 56 bf 60 99 13 bf 6d 95 3b 3e cf 30 c8 3d
       -0.83637816 -0.57655907 0.1831872 0.097749345
000160 15 c6 dd 3e fa 9e 8e 3e d4 78 62 3f 2c a2 fb 3d
       0.43315187 0.27855664 0.8846562 0.12286791
000170 10 06 12 3f 57 a4 8c be 5b 9f 0e bf 18 19 25 bf
       0.570405 -0.2746913 -0.5571191 -0.64491415
000180 bb 19 25 be 44 8e 5f be 89 be a2 3f 9c 5d d6 3e
       -0.16123097 -0.21831614 1.2714397 0.41868293
000190 a0 c4 b8 be 9c 52 91 3e ac 33 63 3f 66 62 9e 3e
       -0.36087513 0.28383338 0.8875072 0.30934447
0001a0 96 23 2e bf 2b 66 07 bf dd ab b9 bf 14 cd 45 bf
       -0.6802305 -0.5289027 -1.4505574 -0.7726605
0001b0 e7 3d c8 bd e5 20 f9 3d 81 22 c1 3f e4 46 a3 3e
       -0.09777432 0.12164477 1.5088655 0.31890023
0001c0 51 96 08 bf bd b0 94 3d 50 25 87 3f c4 f9 be 3e
       -0.53354365 0.07260273 1.0558262 0.3729993
0001d0 49 16 f4 3e 3a b1 b3 3e e6 e4 37 bf 68 47 a8 bd
       0.47673252 0.3509615 -0.71833646 -0.08216745
0001e0 fc ac 7d be b9 c1 9e 3e 2f 0d dd 3f f2 05 1e 3d
       -0.2477302 0.31007174 1.7269648 0.03857989
0001f0 d5 ec 96 be 01 22 d8 3d f8 cf 3e 3e 0f c5 b1 be
       -0.29477564 0.10553361 0.18634021 -0.34720656
000200 d0 ce e2 be a4 c9 e7 3d 8b 1d a5 bf 53 71 f4 be
       -0.4429841 0.11317757 -1.2899641 -0.4774271
000210 ac d1 4a bf 0c b8 21 be bd 46 a7 3f 1d 51 58 3e
       -0.79226184 -0.15792865 1.3068463 0.21124692
000220 1b 9b 0a 3c 68 ef bb 3c 89 ca d4 3f 1e 19 c7 3e
       0.008459832 0.022941306 1.6624309 0.3888635
000230 a4 0e 31 bd 23 1e 5f bc 2e 90 a2 3f 26 55 b1 be
       -0.043226853 -0.013618025 1.270025 -0.34635276
000240 4d 3c cf be 43 41 05 3f 13 bb 09 bf 31 6d 12 bf
       -0.40475693 0.52052706 -0.5380108 -0.5719786
000250 25 3b 35 3e af 58 24 be 63 29 d7 bf b4 02 37 bf
       0.17698343 -0.16049455 -1.6809505 -0.714885
000260 1d 9c 6c be 79 98 65 bd 8c a2 d7 3f 7e 4f 2a 3e
       -0.23106427 -0.056053612 1.684648 0.16631886
000270 28 57 43 bd 13 a6 6e 3d cc e4 d9 3f 7f 02 94 3e
       -0.04769054 0.05826385 1.7022948 0.28908154
000280 d9 f5 57 bc 58 07 6b be 1f c9 e2 3e 09 42 06 3f
       -0.013181173 -0.2295202 0.44294068 0.5244451
000290 41 68 04 3e b0 94 84 3e 97 6e b1 bf 4b be 42 be
       0.12930395 0.2589469 -1.3861874 -0.19017904
0002a0 01 0e 71 3d ac 82 72 be 70 30 98 bf a8 ae bb be
       0.058851246 -0.2368266 -1.1889782 -0.3665669
0002b0 74 77 4c 3e 78 1c 86 bd 0c 5c f4 bf 8c 33 d3 be
       0.19967443 -0.06548399 -1.909059 -0.41250265
0002c0 f6 d5 2a be 41 a8 ff 3e fb 65 c5 3e 4b 75 79 3d
       -0.16683182 0.49933055 0.38554367 0.060902875
0002d0 8b fa ad 3e 26 42 5f 3e cb 30 61 3f fe 02 b0 3e
       0.33980212 0.21802577 0.8796508 0.34377283
0002e0 10 30 de 3d bc 4c 59 be 05 b1 d5 bf b8 3f 69 bd
       0.10849011 -0.21220678 -1.6694647 -0.056945533
0002f0 ed 67 7e be 52 1d 84 3e a8 37 10 bf 2f d8 b7 3d
       -0.24844332 0.2580362 -0.56334925 0.089767806
000300 62 65 28 be 17 e3 80 3e fc 48 e5 3e 02 07 16 3f
       -0.16444924 0.25173256 0.44782245 0.58604443
000310 51 6c 0b 3f 2f 77 3c 3c 67 03 c1 bf 22 ec ef be
       0.5446215 0.011503025 -1.5079163 -0.46859843
000320 f3 32 ae be 60 8f ff bd c9 d2 03 3f 7e 8d ca bd
       -0.34023246 -0.124785185 0.5149351 -0.09890269
000330 d8 ec 9a be 02 0e b4 3e aa ca 15 3f df f3 72 3d
       -0.30258822 0.35166937 0.58512366 0.059314605
000340 8d 07 47 be 90 4e 98 3e 38 58 55 3f 59 a0 d7 be
       -0.19436474 0.29747438 0.83337736 -0.42114523
000350 5e 8b 21 3c e0 9a 5f 3d 78 7b c4 bf f2 c9 89 bd
       0.009859888 0.05459106 -1.535018 -0.06727971
000360 f0 4d c5 3e c6 2a 72 be 71 b2 c5 bf 6a 21 0d be
       0.38536024 -0.2364913 -1.5445081 -0.13782278
000370 5c 1d 2a bf a6 d4 9f 3d e9 ab 36 be 96 2c 1c 3e
       -0.6645105 0.07804231 -0.17839016 0.15251383
000380 5f 5c a6 3d 68 95 33 3d 81 cc 3d be 8d 8b 5f 3e
       0.08123087 0.043843657 -0.18535043 0.21830578
000390 94 1c 09 be 3b c5 95 3c 56 1d 02 40 a1 e4 c2 3e
       -0.13389808 0.018282523 2.0330405 0.38065055
0003a0 a1 a8 f0 3d a3 54 4c 3e ec 30 60 bf bd 59 1c 3e
       0.117509134 0.19954161 -0.8757465 0.15268607
0003b0 be d2 90 3d 04 f1 c8 3d 72 c7 65 3f 82 c0 b9 3e
       0.07071446 0.09811595 0.89757454 0.36279684
0003c0 b8 d4 18 bf a7 bd c6 be 22 76 d1 bc 82 12 f5 bd
       -0.59699583 -0.38816568 -0.025569025 -0.11966421
0003d0 8c 2b 51 be 82 8e d9 3c ac 4d f3 bf 4f 0f a9 bd
       -0.20426768 0.02655721 -1.9008079 -0.08254873
0003e0 fe c6 82 3d 4e e3 a7 3d 4d 8e a4 3f fa f2 39 3c
       0.06385611 0.08197652 1.2855927 0.011349434
0003f0 8b a3 ba be 61 ef 65 bd b2 d1 b8 3f 40 9a 2f 3e
       -0.36452898 -0.056136493 1.4438994 0.17148685

fc1.bias f4 [128]
000000 22 f7 e1 bd 14 db 4f 3e a5 0c b2 be bc 98 9c be
       -0.11033465 0.20298415 -0.34775272 -0.30585277
000010 6f 74 9d be f6 4e db be 6b 20 0f 3d d6 e6 3b 3e
       -0.30752894 -0.4283368 0.034943026 0.18349776
000020 4e ec 56 be 9c 48 e5 3e 1a 8a 54 bf 1d 74 e1 3e
       -0.2098858 0.4478196 -0.83023226 0.440339
000030 3e f4 09 3f bc 08 83 bd 6b ef f0 bd e0 25 39 be
       0.5388831 -0.0639815 -0.11764415 -0.18080854
000040 40 ae 75 3e d2 4b de 3e 93 93 e3 be 6f ca a6 3e
       0.23992252 0.4341722 -0.44448528 0.3257632
000050 e4 80 56 bf 13 fe 89 be b5 cb fe 3d 5f 52 f2 bc
       -0.8379042 -0.26951656 0.12441198 -0.029580293
000060 26 47 b2 be 31 41 21 3f 09 cb 85 be a9 c8 f5 3e
       -0.34819907 0.629901 -0.26131466 0.48004654
000070 df d7 d8 3e 5e d9 7e be b3 f5 09 3f 8e 2a 03 3e
       0.42352197 -0.24887607 0.5389053 0.12809202
000080 63 62 04 bf c6 5c 28 bf 35 7f c0 be fb 5c 84 3e
       -0.51712626 -0.6576656 -0.3759705 0.25852188
000090 8e 57 a7 3d 48 ff db be 5b 55 e5 3e ea 53 ce be
       0.081709966 -0.42968202 0.44791684 -0.40298396
0000a0 19 e3 be be 3f 70 e9 be 78 85 13 3f 0c aa da be
       -0.37282637 -0.4559345 0.5762553 -0.4270786
0000b0 d5 65 a8 be f4 9b 5c bf 50 2c 07 3f 5f 2e 19 3f
       -0.32890192 -0.86175466 0.5280199 0.5983638
0000c0 76 64 fe be ba 1c 51 be ed 38 74 3e d3 c1 a9 3e
       -0.4968602 -0.20421115 0.2384984 0.3315569
0000d0 8b 3a 8e 3e 27 8c b5 3e 75 87 0a 3f 97 92 43 bf
       0.2777904 0.3545849 0.5411294 -0.76395553
0000e0 45 f5 00 bf 00 42 0e bf b1 1f bc 3e 63 e6 04 3f
       -0.5037425 -0.5556946 0.3674293 0.5191404
0000f0 c2 17 2b bf f5 4b 9c be 2a e3 a1 3e a6 91 04 bf
       -0.66833127 -0.305267 0.31618625 -0.5178474
000100 35 5e 0b 3f 71 24 12 bf 4e 7a e6 be 89 3a b2 3e
       0.54440624 -0.57086855 -0.45015186 0.34810284
000110 87 b0 9f be 36 96 08 bf 99 fc 87 be 40 78 fd 3e
       -0.31189367 -0.53354204 -0.26559904 0.49505806
000120 c6 fe 35 bf 3c a1 16 3f 79 f7 7a be c1 b7 13 3f
       -0.7109188 0.58839774 -0.24508466 0.5770226
000130 fa 5d bc 3e 14 c9 3b be f3 59 e3 be f7 c3 36 3e
       0.36790448 -0.18338424 -0.44404563 0.17848192
000140 bb ba 43 bf f4 db 0e bf c8 38 3c be c3 30 5c bf
       -0.76456803 -0.5580437 -0.18381035 -0.86011904
000150 6a f4 ef 3e 73 f9 4d 3d b3 61 c7 be 46 0a ac be
       0.4686616 0.05028672 -0.38941726 -0.33601588
000160 76 c3 30 bf 34 8f fa bd 1a 0a dd be d3 d5 14 3f
       -0.6904825 -0.12234345 -0.4317177 0.5813877
000170 27 f7 90 be fa 0d 00 bf 52 59 05 bf dc b5 18 3f
       -0.28313562 -0.50021327 -0.52089417 0.59652495
000180 a9 e8 90 3e a2 62 0a 3f ea 4c a8 bd b0 7c 8c bf
       0.28302506 0.5405675 -0.08217795 -1.0975552
000190 da 7f 1e bf 3f 1c 40 bf d5 df de 3e 85 e2 cd 3e
       -0.61913836 -0.750431 0.43530145 0.40211883
0001a0 8e b3 bb 3e b4 4d 9b 3e e7 42 28 3e 6a 97 f1 be
       0.36660427 0.3033272 0.16431771 -0.47185832
0001b0 90 f8 b9 3a ee 08 47 bc c5 0f 8f 3d 38 a4 8a bc
       0.0014188457 -0.012148125 0.0698543 -0.016924009
0001c0 eb f9 9d 3e 1d e2 74 bf 07 8f 6e bd e9 e7 cd be
       0.30854735 -0.9565752 -0.05824187 -0.40215996
0001d0 09 41 df 3e 9b 8a ed be 70 be bb 3e 82 3e 06 3f
       0.43604305 -0.4639481 0.3666873 0.5243913
0001e0 46 89 5f bd 0f f3 d7 be 35 11 4e be 14 58 5c 3e
       -0.054574274 -0.42177626 -0.20123751 0.21517974
0001f0 2a 63 1d 3f 53 8c 2f bf 97 2c 59 bf 84 e1 15 3f
       0.6147944 -0.6857349 -0.84833664 0.58547235

fc2.weight f4 [128, 128]
000000 1f b3 10 bf 01 7a 9c 3c 58 8f 6e 3f af 2c f4 3e
       -0.5652332 0.019101145 0.93187475 0.4769034
000010 83 91 22 be 5e fe 89 bd 79 f0 b4 bf be c7 14 3e
       -0.15875821 -0.0673797 -1.4135886 0.1452932
000020 0f ba cb 3e a5 8c 61 3d f8 cf bb 3c 89 f6 20 3e
       0.3979039 0.05506577 0.022926316 0.15719046
000030 42 c8 1c 3c 37 54 22 3e 94 ad 07 3e 0b a4 95 3e
       0.00956923 0.15852438 0.13249809 0.29226717
000040 99 a5 92 bd c5 c7 d5 bb 14 35 ce 3e f9 83 dd bd
       -0.071604915 -0.0065240585 0.4027487 -0.108161874
000050 be ae c0 3d c9 b1 ff 3e 86 3e 24 be 7b 6e 3b be
       0.094083294 0.49940327 -0.16039476 -0.18303864
000060 ff 21 03 bf c8 d5 66 bf d3 2c 76 3e 02 8a ef bf
       -0.5122375 -0.90169954 0.24040537 -1.8713992
000070 c8 2d c8 bf e9 99 cd 3e 74 88 82 be ef 79 7a bd
       -1.5638971 0.40156487 -0.2549473 -0.06115144
000080 85 2d 51 3f 86 0d 64 be a0 a9 b3 3c 02 68 56 bf
       0.8171008 -0.22270784 0.02193147 -0.83752453
000090 03 bc 69 3e 26 4c 88 3e 40 34 15 c0 c2 2d 1b 3d
       0.22825627 0.26620597 -2.331314 0.037885435
0000a0 0e 4e 80 bd 91 68 f4 3e 84 e5 01 3e 85 dd 4a 3f
       -0.06264888 0.47736028 0.1268521 0.7924426
0000b0 5f 25 69 3e 12 90 a3 bd a3 b5 41 3e 11 f2 49 3d
       0.22768162 -0.079864636 0.18916945 0.04930312
0000c0 d0 a2 a7 bc 44 9d 21 3f 30 21 c1 be e2 fc ba 3d
       -0.020463377 0.63130593 -0.37720633 0.09130265
0000d0 6f 4d 0c 3d 69 b0 4a 3e 22 a1 f6 3d f0 e0 95 3e
       0.034253534 0.19793858 0.120424524 0.29273176
0000e0 2b bf 21 bd a0 02 31 bc e3 70 a6 3d 25 ae 34 bf
       -0.039488953 -0.0108038485 0.08127 -0.70578223
0000f0 81 6d da be 59 d1 a6 3f 25 fe c8 be 50 b7 e5 bb
       -0.4266167 1.3032638 -0.39256397 -0.007010378
000100 f6 a7 10 c0 cc ee 9e 3e a5 aa 08 3f c7 a9 04 be
       -2.2602515 0.31041563 0.5338538 -0.1295539
000110 18 88 05 be 67 79 b4 3d 1e b5 cf bd 8d 88 61 bf
       -0.13040197 0.08812218 -0.10141967 -0.88098985
000120 bd d8 e9 3d 47 55 17 3d 80 fa 8f 3e f0 93 07 c0
       0.11418293 0.03694656 0.28120804 -2.1184044
000130 f9 6d a9 be 2b 1a 78 bf 03 13 84 3d d3 c5 87 3e
       -0.33091715 -0.9691493 0.06448939 0.26518115
000140 7e c4 23 be 11 ad 14 bf 8d 31 84 3f 57 c9 5d bd
       -0.15992925 -0.5807658 1.0327622 -0.05414709
000150 e6 12 46 3e a4 d5 d2 be e5 55 7e bd cc 31 e6 3e
       0.19343147 -0.4117862 -0.062093634 0.44959867
000160 e7 70 18 3e ae fd 86 3e 40 89 cd bb ab a1 21 bf
       0.14886819 0.26365417 -0.006272465 -0.6313731
000170 97 8e 1f 3e b9 d5 81 3d 9d 5f 37 bf 6f f5 d0 bf
       0.15581737 0.063395925 -0.7163027 -1.63249
000180 b5 e9 8e be fd e0 db be 20 12 d9 be 2b 2d cb 3d
       -0.2791268 -0.4294509 -0.4239664 0.099207245
000190 5a ac 0d be 4e c7 d0 be 7a ac 5d be b4 b2 06 3e
       -0.13835278 -0.40777057 -0.21647826 0.13154107
0001a0 89 82 29 3e a2 38 db be 1d 4c 07 bd 6c d5 d0 3c
       0.16553701 -0.42816645 -0.03303157 0.025492392
0001b0 3d d0 93 bd a7 a4 a0 3e 78 dd 2d 3e 72 04 4c 3f
       -0.07217453 0.3137562 0.16979015 0.79694283
0001c0 c1 50 0d be c2 5b cc bd f2 7a a7 bf 31 4d bb 3e
       -0.13800336 -0.09978439 -1.3084395 0.3658233
0001d0 5e 28 c3 be 24 9d 12 3f 17 ac e7 be e4 58 57 be
       -0.38116735 0.5727103 -0.45248482 -0.21030003
0001e0 ca a7 b7 be 96 65 27 bf 03 13 b1 be 0d 7b 3f bf
       -0.358702 -0.6538938 -0.34584817 -0.74797136
0001f0 04 4f a4 be ca 44 a0 3e ab aa 26 3e bd bb fb bc
       -0.32091534 0.31302482 0.16276042 -0.030729169
000200 91 f5 24 bd 38 b4 63 bd a1 9f 35 bd 4f 74 a1 bd
       -0.040273253 -0.055591792 -0.044341687 -0.07883512
000210 f3 aa 79 3d de a0 62 3d 0a 67 90 bd 0d ad 21 3d
       0.060954046 0.055329196 -0.07050903 0.039471675
000220 d3 9f 90 bd 76 53 41 bd aa 41 46 3d 26 66 8a bc
       -0.07061734 -0.047198735 0.048402466 -0.016894411
000230 42 ab 42 bd 80 bc b8 bc 09 89 76 bd 99 33 aa 3d
       -0.047526605 -0.022550821 -0.06018928 0.08310623
000240 8d d2 dc bd b8 80 c5 3c 0d 50 c8 bd db bf 3a bd
       -0.10782347 0.02410923 -0.097808935 -0.045593124
000250 f0 fd 05 bc 45 65 c5 bc 12 1f 13 3d 4d 27 89 3d
       -0.008178219 -0.02409614 0.035918303 0.06696949
000260 b5 e7 99 bb 92 3f a6 bd 00 33 ad bc 4e 96 04 3d
       -0.004696811 -0.08117594 -0.021142483 0.032369904
000270 bb 1a 73 bd 2e dd ae bd c5 e1 71 3c 19 ed 22 bc
       -0.059351664 -0.085382804 0.0147633 -0.009944224
000280 a9 51 35 bd 4a 65 19 3d 00 a6 bb 3b a6 64 b2 bb
       -0.04426733 0.037450112 0.005726576 -0.005444127
000290 3f cb fd 3b db 6b b8 bd 1a 7d a3 bd a0 07 13 3b
       0.007745176 -0.09004947 -0.079828456 0.0022434965
0002a0 ba 98 06 bd f4 8d 4a bd cd 11 81 3d 51 48 a6 3c
       -0.032860495 -0.049451783 0.06302223 0.020298155
0002b0 4a e4 48 3d 2f eb 5e bd 65 97 23 bd e8 12 3a bc
       0.04904584 -0.054423507 -0.039939303 -0.011357047
0002c0 dc 5f a3 bd c1 2a a8 3d 89 38 98 bd f3 2a ac bd
       -0.07977268 0.0821128 -0.07432658 -0.084066294
0002d0 67 ef 35 bd df 2a 4d 3c 26 25 03 bd 00 4b 95 bd
       -0.044417765 0.012522428 -0.03201785 -0.07289696
0002e0 b8 e7 ac bd 2a 50 20 3d 6a c1 d9 bd 01 92 d1 bd
       -0.08442634 0.03913895 -0.10632594 -0.10232926
0002f0 e1 df 95 bd 78 93 e5 3c 98 bd 22 bd e0 e5 b9 3c
       -0.07318092 0.02802442 -0.039731592 0.02269262
000300 e2 a5 88 bd c5 b7 b1 bd f9 ee 98 bb 95 e8 59 3d
       -0.06672265 -0.086776294 -0.0046671596 0.053200323
000310 be 83 99 bd a5 46 a4 bd c0 e5 f7 bc 4e 5f 5b bd
       -0.07495831 -0.08021287 -0.03026092 -0.053557687
000320 44 f2 83 bd 73 5b c3 3c fc 86 81 bd 26 d3 16 3d
       -0.06442693 0.023847317 -0.06324574 0.03682246
000330 2a 79 60 3d 28 c7 aa 3c ca 47 35 3d 4a 53 3b 3d
       0.05480305 0.020846918 0.044257917 0.045733728
000340 0e aa a8 bd b0 ce 87 bd 1b 2e 0b bd 1d dd a5 3d
       -0.0823556 -0.066312194 -0.033979516 0.08098815
000350 43 22 38 bd fb 9c 8c 3d b0 ba d9 3b 5d 32 b4 bd
       -0.04495455 0.06865879 0.0066445693 -0.087986685
000360 c8 33 21 3c d5 e4 85 3d 7e ef e7 bc 7c 73 86 bd
       0.009839006 0.06537787 -0.028312441 -0.06564996
000370 71 a2 9a 3d 84 81 87 bc 1f 8c 8f 3d 4f eb 6e bd
       0.075505145 -0.01654125 0.07009148 -0.058329877
000380 ea a9 df bd 4e c2 48 3d 98 44 87 bc 44 63 6b bd
       -0.109210804 0.04901343 -0.0165122 -0.057467714
000390 1d ec 94 bd 5b 12 04 bd 35 ea ae bd d2 e9 b9 bd
       -0.072715975 -0.032244068 -0.08540765 -0.09077801
0003a0 80 04 2b bc 60 66 b5 3c 0b 05 02 3d d0 de b0 3b
       -0.010438085 0.022143543 0.03174309 0.005397655
0003b0 d0 07 c3 bb 3c 91 80 3c c4 f7 fe bc e8 80 8d bd
       -0.005951859 0.015694253 -0.031124003 -0.069093525
0003c0 2c 9c 0a bd e3 89 80 3d c8 99 95 bc 8f 14 a5 3d
       -0.033840343 0.062763 -0.018261805 0.08060562
0003d0 ff 75 71 bc 8f f9 99 3d 04 40 b9 bc f5 ed 36 3d
       -0.014737605 0.07518303 -0.022613533 0.044660527
0003e0 51 da 80 bd 9c 86 0e 3d 70 54 a0 bb 88 08 1b 3c
       -0.062916405 0.034796342 -0.0048928782 0.009462483
0003f0 af 62 d1 3a 26 7d 18 3d ce e2 3b 3d fe 20 d5 bd
       0.0015974845 0.037228726 0.045870595 -0.104066834

fc2.bias f4 [128]
000000 8f 54 88 3c 3d 76 55 bc 82 19 8d 3e 57 38 3d 3e
       0.016641883 -0.0130286785 0.27558523 0.18478523
000010 bb c8 58 be 3c 16 a9 bd 37 58 81 3e 78 cc 9c 3e
       -0.21170323 -0.08256194 0.25262615 0.30624747
000020 a2 1e 3d bc 83 bb 9c bb f0 85 a7 3c 7e 46 d1 bd
       -0.011542948 -0.0047830953 0.020449609 -0.102185234
000030 17 e0 8c 3e 0e 65 1a be e5 93 8d bd a9 e3 8c bd
       0.27514717 -0.15077612 -0.06912974 -0.0687936
000040 8c 28 42 be 71 fb 9e 3d 08 81 6d bc 56 a9 57 be
       -0.1896078 0.077628024 -0.0144960955 -0.2106069
000050 86 68 8b 3e 63 62 ab 3e 24 2b a7 3c db 44 37 be
       0.27228183 0.334735 0.020406313 -0.1789736
000060 af be b9 3c 2e 74 bc bd 13 94 b2 bc ab d2 1f bc
       0.022673933 -0.09201847 -0.021799123 -0.009754817
000070 97 66 87 3e 1d 14 14 bd 7f 40 98 bd 5c 70 63 bd
       0.26445457 -0.036151994 -0.07434177 -0.055527076
000080 52 46 06 3e 20 86 17 3e 74 a0 8d 3e 7d a0 1a bd
       0.13112763 0.14797258 0.2766148 -0.03775071
000090 5d 12 5e bb 7b f8 2b be 4e a5 e0 bd b3 91 90 be
       -0.0033885457 -0.16794007 -0.10969029 -0.2823616
0000a0 f8 6e 94 bd e9 cd b0 3e 6b 59 0b be e7 87 20 3e
       -0.07247728 0.34532097 -0.13608329 0.15676843
0000b0 f9 d6 51 bd ac 36 90 be 24 fb 8b 3e 48 0c 27 be
       -0.051230405 -0.2816671 0.27340043 -0.16313279
0000c0 bb 03 0c bd 5e 1b 74 3e 43 95 d0 bb 49 a7 19 bd
       -0.034183245 0.23838565 -0.0063654496 -0.03751305
0000d0 5f 39 16 bd 38 a5 df bc 58 0b b2 bc 18 2f 57 bd
       -0.036675807 -0.027300462 -0.021733925 -0.052535146
0000e0 95 c4 87 ba de c5 72 be 8a d9 a5 3e 84 37 8f bd
       -0.0010358269 -0.23708293 0.32392532 -0.06993011
0000f0 48 b9 98 be 3e 6c 55 3e 44 8b 65 3e d9 c0 1b be
       -0.29828858 0.20842072 0.22416407 -0.15210284
000100 2a 70 92 bc 3e ad d1 bd fd 7e ae 3e 46 76 c0 bd
       -0.01787575 -0.102381214 0.3408126 -0.09397559
000110 39 4b 6c 3e ee 12 d7 bd 32 ad 93 bb ec fa b0 bd
       0.2307557 -0.105016574 -0.0045067305 -0.086416095
000120 b7 66 76 bd 5e db fe bc 24 38 89 3d 24 a4 00 3e
       -0.06015655 -0.031110462 0.06700161 0.12562615
000130 bd 51 36 bd 27 ad 0f bd 70 7d ae 3e f2 5d a4 3e
       -0.044511545 -0.03507724 0.34080076 0.32102925
000140 8c 2b 26 be 87 ee f1 bd 2f cc 2d 3d 5d 8c 32 3d
       -0.1622755 -0.118130736 0.042431053 0.043590892
000150 7b d9 39 be d1 2f fe bc e5 ec 50 3e 1d 39 de bd
       -0.18149368 -0.03102866 0.20402868 -0.10850737
000160 4c 16 82 bd d2 d9 ba bd 5b 65 9d 3e 29 6a 9e 3e
       -0.06351909 -0.09123577 0.3074139 0.3094037
000170 7c 5e eb bc 50 81 c2 3e a2 45 6e 3e a0 2b 47 3e
       -0.028731577 0.37989283 0.2326875 0.19450235
000180 69 96 44 bd 3d 78 e8 bd 01 eb 6c bd 91 f5 3c bd
       -0.047995005 -0.11351059 -0.057841305 -0.046132628
000190 b1 9c 9d 3e 87 f4 9d 3e 8d b7 cc 3d 22 9e 1b be
       0.3078361 0.30850622 0.09995947 -0.15197042
0001a0 ae 85 13 3c f2 32 d4 bc 80 91 0d be f9 c0 51 3e
       0.00900404 -0.025903199 -0.13825035 0.2048377
0001b0 76 7e 83 3e 46 2d 9e be 24 52 95 be 4d 09 a0 bd
       0.2568242 -0.30893916 -0.2916423 -0.07814274
0001c0 e3 76 d3 bd 43 ec 55 3d fc 75 c3 bd a2 f2 6c bd
       -0.1032541 0.05222727 -0.09543988 -0.05784858
0001d0 70 6e aa 3e 26 5a 50 3b d0 9c af bd 6c d6 3b 3e
       0.33287382 0.0031792014 -0.085748315 0.18343514
0001e0 9d 18 f5 bd d1 d2 6d bd 40 38 88 bd 7c 54 b2 bd
       -0.11967585 -0.05806238 -0.06651354 -0.0870752
0001f0 98 e8 0a be 73 d7 3a 3e a4 73 9b 3c 37 6c 07 ba
       -0.1356529 0.1824625 0.01897604 -0.00051659666

fc3.weight f4 [2, 128]
000000 20 12 ad bf 34 12 98 3c 1a 23 ba 3e e8 eb bf 3e
       -1.3521156 0.018563367 0.36354905 0.3748467
000010 c6 eb dd 3e b6 bb b4 3c ef 87 43 3f 7f 30 f4 3e
       0.43343943 0.022062164 0.76379293 0.4769325
000020 e0 aa 5a bb a2 67 8c 3e 2b 84 45 bd 3e 55 a3 3c
       -0.003336601 0.27422816 -0.04822175 0.019938108
000030 e1 4f 16 3f 83 99 ce 3e e7 20 f7 3b d4 80 da bc
       0.58715636 0.40351495 0.007541764 -0.026672758
000040 ef ff 48 bf a9 e8 a1 3d 31 46 9f 3c d8 f3 d8 bf
       -0.78515524 0.079057045 0.01944265 -1.6949415
000050 1d b0 24 3f 53 ee 0e 3f ba f9 b7 bf e0 61 8a bf
       0.6433123 0.55832404 -1.4373085 -1.0811119
000060 91 d6 1b 3d bd bc 4d bd 83 79 bc bf 0c e5 2c c0
       0.038046423 -0.050228823 -1.4724582 -2.70148
000070 57 00 e2 3e 4e 40 10 3d 60 b8 3a 3d 24 e6 54 bc
       0.44140884 0.035217576 0.04558599 -0.012994323
000080 70 47 2d 3f d1 50 19 bf ae 1c 17 3f eb 8d c5 bf
       0.6768713 -0.5988894 0.59028137 -1.5433935
000090 82 19 80 3c a9 b6 b3 bf 01 48 20 3d 41 fa ad bf
       0.015637163 -1.4040118 0.03913117 -1.3591996
0000a0 cc 43 54 3d 60 ed ff 3e f1 08 a8 be 4b 6a 08 3f
       0.05182247 0.4998579 -0.32819322 0.5328719
0000b0 24 d8 14 3d 05 c9 0c bf d8 29 07 3f 6a cb 05 bf
       0.03633894 -0.5499423 0.52798223 -0.5226351
0000c0 81 81 c8 bc c3 33 c0 3e 26 16 91 bf cf 9f 85 3c
       -0.024475815 0.3753949 -1.1334884 0.016311554
0000d0 c0 d8 90 be 66 b4 94 3c 55 22 01 bd 69 80 03 3d
       -0.28290367 0.018152427 -0.031526882 0.032104883
0000e0 a2 69 b3 bc ca 9d d1 3e 46 a4 09 3f f1 d4 54 bb
       -0.021900956 0.40940696 0.53766286 -0.0032475556
0000f0 9e 9c 81 be 29 50 29 3f d5 04 e4 3e 2a dc 82 bf
       -0.25314802 0.6613794 0.44534937 -1.0223439
000100 6c d1 9f bd eb 63 ea 38 14 79 1c 3f 51 c3 8d bf
       -0.07803616 0.00011176601 0.6112225 -1.1075231
000110 e4 ff 94 3e d0 0d 8a be 0e dc 1b bd 80 40 9d 3c
       0.2910148 -0.26963663 -0.038051657 0.019195795
000120 5c 19 40 3d 9d f2 a7 bb 1a 2f 26 3f ae 9c ae bd
       0.046899185 -0.0051253573 0.6491562 -0.08525978
000130 5f fb b9 bf 8b 48 9e bd 0b 44 1e 3f bf 5b d2 be
       -1.4529837 -0.0772868 0.61822575 -0.41085622
000140 c4 da 5b bf 81 35 80 bb 94 03 a3 bb c2 06 97 bd
       -0.85880685 -0.003912628 -0.004974792 -0.07374336
000150 7f 6c b9 bf a1 6a af bf ca b8 16 3e de be a3 bf
       -1.4486235 -1.3704416 0.14718929 -1.2792623
000160 aa f8 0f bd 06 d6 af bf 9e 52 eb 3e 32 25 a1 3e
       -0.035149254 -1.373719 0.4596147 0.3147369
000170 7a f7 f1 3b a9 20 0b 3f 22 08 15 3f 50 e5 a6 3e
       0.007384238 0.5434671 0.58215535 0.32596827
000180 08 0e 49 3f e2 58 d3 bf 74 78 54 bf 37 34 cc bf
       0.78537035 -1.65115 -0.82996297 -1.5953435
000190 bb 66 0f 3f ab 9e 1c 3f 53 90 20 bf 32 58 a3 bf
       0.5601613 0.6117961 -0.6272022 -1.276129
0001a0 37 5a 2a bc 76 3b 50 3d 4c d3 07 3d 3b 4b 7a 3e
       -0.010397485 0.050837956 0.033160493 0.2444276
0001b0 2c 8a 06 3f 65 47 9c 3f 3f 8b af bf d1 af bc 3d
       0.52554584 1.2209288 -1.371437 0.09213222
0001c0 a8 d8 53 3e 67 9c 11 bd 96 6e fa 39 7c 31 b5 bf
       0.20688117 -0.035549548 0.0004776611 -1.4155726
0001d0 84 7d f9 3e a2 05 82 bf d2 f2 78 3d 28 14 1d 3f
       0.48728573 -1.0157969 0.060778446 0.6135888
0001e0 b3 89 99 bb 87 22 98 bf 7f b0 1d 3e 68 be 8e 3d
       -0.0046856045 -1.1885537 0.15399359 0.06969911
0001f0 c0 53 7a bd 04 8a 04 3f 38 db 23 3c 83 7c 8f bd
       -0.061115026 0.51773095 0.010000996 -0.070061706
000200 e9 29 7b bf 37 57 e6 bb fa d2 32 3f de 05 37 3f
       -0.98110825 -0.00702944 0.69853175 0.7149333
000210 2e 70 65 bf 7c 02 9b bc 47 69 16 3f 66 71 e5 3e
       -0.896243 -0.018922083 0.5875439 0.4481308
000220 b6 15 c2 39 52 76 1b c0 b9 d8 ed 3c 4d 9e 96 bd
       0.0003701874 -2.4290967 0.029034005 -0.07354412
000230 30 20 2c 3f a4 38 ee bf d1 58 3b bc 78 9e ab bc
       0.67236614 -1.8611035 -0.01143475 -0.020949587
000240 a1 f1 07 c0 2e 3f e3 3e 1d 12 c5 bb 8b 8d 8b bf
       -2.1241229 0.4438414 -0.006014122 -1.090257
000250 3e 82 21 3f f5 01 1d 3f c0 75 9c bd 4c aa 0b bf
       0.6308936 0.6133111 -0.076396465 -0.5455673
000260 2f 1a 83 bb a2 66 27 bd 8f 79 bb be d3 72 27 3f
       -0.004000924 -0.040869363 -0.3661618 0.6540958
000270 07 81 c2 3e 91 96 ae 3c 0c e2 68 3d d8 8e 8e bd
       0.37989065 0.02131203 0.0568562 -0.06960839
000280 0a e6 89 be ba 56 2e c0 6e da 1a 3f 81 b8 9d be
       -0.26933318 -2.7240434 0.6048955 -0.30804828
000290 fd ed 97 bd fe fd 11 bf 9c 19 3a bb 61 e3 d0 bf
       -0.074184395 -0.57028186 -0.0028396612 -1.631939
0002a0 00 8c d7 3c f2 9e 20 3f 09 3d de be 9d b0 1b 3e
       0.026311874 0.6274253 -0.4340594 0.15204091
0002b0 af ff e1 bc 8a 12 87 bf 86 b5 5f 3e c1 c7 cd be
       -0.02758774 -1.0552533 0.2184659 -0.40191463
0002c0 1d bd 9e 3c 8e 6d 04 3f bd 4c b0 bf 40 25 89 3c
       0.019377286 0.5172967 -1.3773419 0.016741395
0002d0 82 1e 8d bf dc 14 0c bd 29 85 18 bd f7 80 35 3d
       -1.1024935 -0.03419958 -0.037236366 0.044312444
0002e0 f1 0e 1a bb 67 bd 5b bf 62 ae 21 3f c9 69 8f bc
       -0.002350744 -0.8583588 0.6315671 -0.017506497
0002f0 55 fe 4b 3f b2 39 e1 be b5 99 d3 3e e8 34 3f bf
       0.79684955 -0.4398933 0.41328207 -0.74690104
000300 fa d8 5e bd 03 d2 82 bd 5a 31 27 3f 94 9c ff bf
       -0.054406144 -0.06387713 0.6530968 -1.9969659
000310 f2 5b fb be bc b6 92 3e 6e ac 97 bd e9 2f 47 3c
       -0.49093586 0.2865504 -0.07405935 0.012157419
000320 1c b7 06 3d 2e de 70 bd c7 3a 3e 3e f3 57 28 3e
       0.03288947 -0.058805637 0.1857711 0.164398
000330 f9 e3 11 3f 01 80 ad 3d be 98 1a 3f 23 f3 e7 3e
       0.56988484 0.084716804 0.60389316 0.45302686
000340 6f f4 8b bf 1a fe 4d 3d db 80 b8 bc 76 31 54 3d
       -1.093397 0.05029116 -0.02252238 0.051804982
000350 ef 85 92 bd c1 28 74 bf d0 80 82 3e c5 af 87 bf
       -0.07154452 -0.95374686 0.254889 -1.0600516
000360 08 f0 ad 3c 99 f1 2d bf 17 b6 dd 3e 48 a7 19 3f
       0.02123262 -0.67946774 0.43302986 0.60020876
000370 0d af a5 bc ed fb 1c 3f 4f 16 1b 3f 64 ed c2 be
       -0.020225072 0.6132191 0.60580915 -0.3807174
000380 5a d4 00 c0 97 2b 58 bf 0d 21 10 c0 f1 48 1b be
       -2.012961 -0.8444151 -2.2520173 -0.15164544
000390 97 71 0f 3f 3a 8c 3d 3e d8 3e 9c 3e 78 12 da bf
       0.560327 0.18510523 0.30516696 -1.7036886
0003a0 cc 66 84 3d 44 ed 98 bd 6f f1 6e bd d8 c0 0f 3f
       0.064649194 -0.0746713 -0.058335718 0.5615363
0003b0 23 61 1f 3f 4f 1f 3d 3e 0a 4d e5 bf 8c 5a 83 bc
       0.62257594 0.18468975 -1.7914135 -0.016034387
0003c0 f5 e9 3f bd f7 d7 3b bd ba c1 61 3c d1 64 12 bf
       -0.04685398 -0.045860257 0.013779098 -0.57185084
0003d0 b3 9e 2d 3f e8 55 f6 bf 29 ec 4d 3d 37 d9 2c 3f
       0.6782028 -1.9244967 0.050274048 0.67518944
0003e0 7f b4 8f bd a6 7f d4 bf eb df bb bf 76 fc c7 bc
       -0.07016849 -1.6601455 -1.4677709 -0.024412375
0003f0 05 04 97 bf 63 a5 40 3f 8e f5 3a bd c2 15 54 bb
       -1.1798102 0.7525236 -0.045644335 -0.0032361601

fc3.bias f4 [2]
000000 0a 8b 01 3e 0c f7 91 3e
       0.12650695 0.28508794
