weights/creative.pth (torch, 72210 bytes, 6 tensors)

fc1.weight f4 [128, 4]
-0.60219324 -0.06609889 0.025815312 0.05832659 -0.00025783246 -0.03605251 -2.192167 -0.38912296
0.14198904 -0.18975297 -0.94551617 -0.3786586 -0.1265171 0.05907725 -1.9332808 -0.0508527
-0.33449745 0.2994562 1.095548 0.34729123 0.08572123 0.22792597 1.9502182 0.4635998
0.36096737 0.20173301 -0.930918 -0.24545082 0.050123 0.3651515 -0.8899849 0.6234715
0.330597 -0.25891912 -1.1394606 -0.3716849 -0.20243509 0.06828417 1.0891459 0.52139467
0.032202117 0.054593723 2.3667827 0.3398227 0.43583006 -0.46924764 0.16055341 -0.18339163
0.33860797 0.061698586 1.12228 0.27319935 0.0004901347 -0.00904596 -1.5639613 0.2295597
-0.3094325 0.4097039 0.7822406 0.32930562 -0.036040034 0.19462398 -1.5718195 0.41496536
0.07076902 0.0023108907 2.3393755 0.43432945 0.4683978 -0.0032292188 0.51812637 0.090927504
-0.43977496 -0.12026074 0.10946893 0.015868468 0.09811286 -0.06647148 -2.2346108 -0.3511801
0.32243124 0.14699645 -0.55947316 0.18787222 0.50744283 -0.053710423 -1.4093229 -0.37801617
-0.23129931 0.15668276 1.0070416 -0.3551151 -0.80318403 -0.13387656 -0.35779163 -0.011231476
0.28824416 -0.36824715 -1.1692082 0.5145694 0.37764025 -0.13339232 0.6794771 -0.58550674
-0.54558045 0.7073682 0.91234326 0.39034733 -0.3173293 -0.06435551 0.7519637 -0.024518164
0.034313507 0.009453481 -0.91105574 0.06034124 0.12910359 -0.20175558 -2.1561341 -0.3730799
0.06266592 -0.026166225 2.128692 0.23397736 0.06943411 0.037543878 -1.8653401 -0.13435696
-0.47556975 -0.012213969 0.63943666 0.029390493 -0.2974936 -0.019921917 0.59626555 0.0014318519
0.26048705 -0.30181694 -0.73671293 -0.49632043 -0.05992783 0.0740685 1.8833983 0.14755526
-0.14991319 0.059992254 0.4920525 0.010164142 0.117971994 0.101894245 -1.7643648 0.20343164
0.09320855 0.3973584 1.3490944 -0.56986654 0.3246684 -0.36396286 -0.31209606 -0.2373112
0.10573801 0.05301582 -1.1698965 0.30477867 -0.25429884 0.2412301 -1.4835846 -0.4258768
0.4891338 -0.24167489 1.0760318 -0.11010318 -0.008824771 0.1881825 2.3051772 0.53948164
0.03822997 -0.0134575125 1.9948753 0.22392155 -0.11175838 0.33110458 1.2470669 -0.4233533
-0.16293336 0.17993641 0.18094243 0.55483747 0.08793742 -0.26146907 1.0465679 -0.36966175
0.93412167 0.22468959 0.892337 0.16207391 0.1769897 -0.25809935 0.12689593 -0.35073468
0.041525453 0.29405835 1.6061436 0.6561767 -0.008266746 -0.016823236 -1.3981514 0.38674265
-0.04456642 0.14410388 2.0579128 0.2187273 -0.35297757 -0.11173287 1.0505475 0.04739275
-0.22473495 0.30742455 -1.8726833 0.29107246 -0.639031 -0.31179774 -1.8487272 -0.2909478
0.12562151 0.18229705 1.1346334 0.56331134 -0.20610179 0.56249124 0.7165158 0.59825045
-0.49595216 -0.44069213 0.35492593 -0.1535703 -0.090580165 -0.2604191 -0.18472026 -0.9263056
0.527605 -0.17684636 0.78293914 -0.37346017 -0.12205277 0.14370659 0.090571925 0.091479786
-0.60540664 0.18113923 -2.009976 0.21600702 -0.538314 -0.031401396 0.4909481 0.1105823
00000000: 5629 1abf db5e 87bd a27a d33c dde7 6e3d
00000010: b02d 87b9 ccab 13bd 774c 0cc0 203b c7be
00000020: 9365 113e 9a4e 42be 590d 72bf 8adf c1be
00000030: b38d 01be fdfa 713d bf75 f7bf ec4a 50bd
00000040: 4043 abbe 5352 993e eb3a 8c3f 28d0 b13e
00000050: 9d8e af3d 6d65 693e c0a0 f93f f45c ed3e
00000060: b7d0 b83e 1993 4e3e a450 6ebf 7657 7bbe
00000070: c64d 4d3d 23f5 ba3e 0dd6 63bf d49b 1f3f
00000080: 0344 a93e 0c91 84be d8d9 91bf 7c4d bebe
00000090: 254b 4fbe 92d8 8b3d 2269 8b3f 1f7a 053f
000000a0: 5ee6 033d ab9d 5f3d 5e79 1740 3efd ad3e
000000b0: 1e25 df3e 3a41 f0be 1d68 243e 04cb 3bbe
000000c0: 065e ad3e a8b7 7c3d dfa6 8f3f c9e0 8b3e
000000d0: 627c 003a 8235 14bc e22f c8bf b311 6b3e
000000e0: f06d 9ebe b6c4 d13e ec40 483f bf9a a83e
000000f0: b79e 13bd 824b 473e 6231 c9bf 5776 d43e
00000100: 59ef 903d 5072 173b 54b8 1540 6e60 de3e
00000110: d6d1 ef3e 4da1 53bb eea3 043f 3338 ba3d
00000120: 2f2a e1be 434b f6bd 3f31 e03d 97fe 813c
00000130: 65ef c83d 3322 88bd dd03 0fc0 e1cd b3be
00000140: b515 a53e 3d86 163e a239 0fbf 9361 403e
00000150: c6e7 013f 76ff 5bbd b164 b4bf 568b c1be
00000160: bad9 6cbe 7271 203e bde6 803f a5d1 b5be
00000170: 789d 4dbf f016 09be 7730 b7be 3a04 38bc
00000180: bd94 933e e48a bcbe 9da8 95bf d2ba 033f
00000190: 105a c13e ff97 08be 36f2 2d3f c5e3 15bf
000001a0: 29ab 0bbf 1516 353f 548f 693f 9bdb c73e
000001b0: fc78 a2be d2cc 83bd b180 403f 51da c8bc
000001c0: 528c 0c3d c6e2 1a3c f33a 69bf 6028 773d
000001d0: bb33 043e 0499 4ebe 1afe 09c0 5404 bfbe
000001e0: fd56 803d 8d5a d6bc 7d3c 0840 c397 6f3e
000001f0: 7833 8e3d 9cc7 193d 77c3 eebf df94 09be
00000200: e17d f3be 191d 48bc 1fb2 233f 55c4 f03c
00000210: 1551 98be 4a33 a3bc dca4 183f faac bb3a
00000220: 8f5e 853e c087 9abe 3899 3cbf b61d febe
00000230: e276 75bd 3ab1 973d 3213 f13f ba18 173e
00000240: d882 19be 70ba 753d 4eee fb3e 8087 263c
00000250: 4d9b f13d eead d03d b5d6 e1bf 6250 503e
00000260: 20e4 be3d 8f72 cb3e 20af ac3f c6e2 11bf
00000270: f03a a63e 5759 babe 0ecb 9fbe b501 73be
00000280: 2b8d d83d 1e27 593d 2bbf 95bf f30b 9c3e
00000290: 7533 82be 0605 773e 1ae6 bdbf 860c dabe
000002a0: bf6f fa3e 9f79 77be 69bb 893f c77d e1bd
000002b0: c695 10bc eab2 403e 0688 1340 781b 0a3f
000002c0: 0797 1c3d e67c 5cbc 1358 ff3f b14b 653e
000002d0: 94e1 e4bd 8a86 a93e e39f 9f3f c4c1 d8be
000002e0: 01d8 26be 4041 383e f948 393e d409 0e3f
000002f0: 8918 b43d 46df 85be f0f5 853f 4e44 bdbe
00000300: 9922 6f3f 0715 663e 3370 643f b4f6 253e
00000310: ca3c 353e 9925 84be 02f1 013e 7f93 b3be
00000320: 9816 2a3d d18e 963e 1d96 cd3f 32fb 273f
00000330: 3f71 07bc e2d0 89bc a0f6 b2bf 2203 c63e
00000340: 478b 36bd f88f 133e d8b4 0340 0dfa 5f3e
00000350: 7ab9 b4be 34d4 e4bd 5778 863f e61e 423d
00000360: eb20 66be c066 9d3e 16b4 efbf 7307 953e
00000370: 8997 23bf f4a3 9fbe 18a3 ecbf 1cf7 94be
00000380: eda2 003e 14ac 3a3e ab3b 913f 2c35 103f
00000390: 590c 53be 6dff 0f3f 946d 373f f126 193f
000003a0: 71ed fdbe 66a2 e1be dab8 b53e 8841 1dbe
000003b0: 1882 b9bd a755 85be 4f27 3dbe 5d22 6dbf
000003c0: 1f11 073f 3617 35be b36e 483f 2c36 bfbe
000003d0: cdf6 f9bd d227 133e c67d b93d c159 bb3d
000003e0: eefb 1abf 907c 393e 72a3 00c0 f230 5d3e
000003f0: f2ce 09bf c09e 00bd 8d5d fb3e f978 e23d

fc1.bias f4 [128]
-0.38634294 -0.5730564 -0.04717301 -0.17039923 0.576864 0.06188207 -0.9439408 -0.33348373
0.44428787 0.5487632 -0.45074323 -0.6549955 -0.69101787 0.29723495 0.470245 0.025518505
-0.4401505 -0.55835646 -0.7130022 -0.5121003 -0.75270265 -0.52292496 -0.19817412 -0.7456978
-0.35960278 0.08493035 -0.60979575 0.3052702 -0.072742134 -0.52465755 -0.4135844 -0.42618564
-0.9920649 -0.8380987 0.49720615 -0.5271343 -0.43561453 0.6073802 -0.43848953 0.45408708
-0.19606927 -0.39253253 0.28279942 -0.6073409 0.4956025 0.15808614 0.41309953 0.16692194
-0.16346124 -0.6684323 -0.20306262 0.035286374 -0.42672616 -0.75266814 0.008883294 -0.41320878
-0.8222931 -0.28444567 -0.08843455 -0.34400594 -0.32742098 0.4307478 0.14237751 -1.1849694
-0.60510683 -0.11525132 -0.44584796 -0.20777547 -0.6097465 -0.33756667 0.41988632 -0.67510605
-0.0771155 0.31724268 0.3527898 0.2578253 -0.64902616 -0.42029217 0.072765 0.2542494
-0.5895829 0.48731467 -0.69980234 -0.4618653 -0.36005422 0.036934916 0.33388335 0.5946809
-0.28886482 0.066523634 -0.43079814 0.101070866 -0.3406475 0.5872714 -0.52178437 0.61582154
0.48479617 -0.5159373 -0.3494261 0.22933553 -0.12693317 -0.40566888 0.33554822 0.023567436
0.34029707 -0.41034564 0.043485332 -0.0068433485 -0.14908215 -0.83402574 0.3747598 -0.58936495
0.16607988 -0.546755 -0.9135935 0.32936382 0.42630434 -0.911006 -0.24116865 -0.47824144
-0.79351836 0.33691898 -0.21361327 -0.87531847 -0.47495022 0.56742966 -0.16507417 -0.384096
00000000: bece c5be d3b3 12bf 7c38 41bd 237d 2ebe
00000010: 5cad 133f 0e78 7d3d 1ba6 71bf 61be aabe
00000020: b379 e33e bf7b 0c3f d1c7 e6be c9ad 27bf
00000030: 8ce6 30bf 2e2f 983e f4c3 f03e 2f0c d13c
00000040: 685b e1be 73f0 0ebf 5087 36bf 0119 03bf
00000050: 1fb1 40bf 69de 05bf 28ee 4abe 0de6 3ebf
00000060: db1d b8be f7ef ad3d 931b 1cbf 604c 9c3e
00000070: d4f9 94bd f54f 06bf 56c1 d3be 0135 dabe
00000080: f7f7 7dbf a38d 56bf ce91 fe3e 46f2 06bf
00000090: de08 dfbe 457d 1b3f b381 e0be 1a7e e83e
000000a0: 62c6 48be 06fa c8be 16cb 903e b17a 1bbf
000000b0: 9cbf fd3e 55e1 213e c881 d33e 96ed 2a3e
000000c0: 6262 27be 611e 2bbf a6ef 4fbe 7288 103d
000000d0: da7b dabe dcae 40bf 3c8b 113c 1a90 d3be
000000e0: cd81 52bf dda2 91be 2c1d b5bd 8c21 b0be
000000f0: b9a3 a7be fa8a dc3e 69cb 113e 14ad 97bf
00000100: 48e8 1abf e208 ecbd 2f46 e4be 18c3 54be
00000110: 5918 1cbf 8ad5 acbe 57fb d63e c0d3 2cbf
00000120: bbee 9dbd a26d a23e dda0 b43e ad01 843e
00000130: 9426 26bf 8930 d7be d105 953d fa2c 823e
00000140: e8ee 16bf 4f81 f93e 3f26 33bf 9c79 ecbe
00000150: 0759 b8be 1149 173d c2f2 aa3e 023d 183f
00000160: 17e6 93be 8b3d 883d 9391 dcbe 3efe ce3d
00000170: 5969 aebe 6b57 163f a993 05bf 7ba6 1d3f
00000180: 3437 f83e 7814 04bf fae7 b2be efd6 6a3e
00000190: c5fa 01be d5b3 cfbe facc ab3e 7f10 c13c
000001a0: 6b3b ae3e d318 d2be ad1d 323d 2b3e e0bb
000001b0: fea8 18be b682 55bf 84e0 bf3e 9fe0 16bf
000001c0: d810 2a3e 23f8 0bbf 43e1 69bf 60a2 a83e
000001d0: 9044 da3e b037 69bf eaf4 76be 10dc f4be
000001e0: 0524 4bbf a580 ac3e 70bd 5abe df14 60bf
000001f0: ad2c f3be 1243 113f 3409 29be 3ba8 c4be

fc2.weight f4 [128, 128]
-0.07859148 -0.4235329 0.35965362 0.24075985 0.16846333 -0.2053853 0.04184155 -0.21046963
0.2606645 0.0744216 -0.52817863 0.0707478 -0.43236998 0.17889465 -0.044998545 0.011212596
-1.0688239 -0.05529814 -0.2977915 0.35715705 -1.0521704 0.5179077 -0.2527523 -0.17093928
0.27964804 0.090595566 -0.1453651 0.12428974 0.030212129 0.25851235 -2.4287267 -0.031807493
-0.95099837 -0.86676246 0.24847648 -0.3802955 -0.025351383 0.040575247 0.055064578 0.18288255
-0.18120487 0.10379734 0.07361188 0.046164237 0.08868102 -0.04731595 0.031116255 -0.0040422957
0.3729087 -0.14383705 -0.32996896 0.07743934 -1.7450502 -0.68503195 0.17448016 -0.3810435
-0.7521958 -0.279188 -0.15660164 0.12216605 -0.0038029095 0.18005942 0.060953587 -1.1617424
-0.2392203 0.09610901 0.2767211 0.42097723 0.17704841 0.4626095 0.23870166 0.12320202
-0.017598564 0.039061554 -0.11958129 0.15288724 -0.26579615 -0.06805823 0.07237037 -0.012421853
-0.23995836 -0.054573808 0.3027481 0.01824146 -0.11301102 0.18509577 0.24683832 0.06171844
-0.04165718 -0.15826362 -2.5285666 0.14592874 -0.61211574 0.18266842 0.016418222 0.24724323
0.14736652 -0.064418525 -0.1489322 0.1185923 0.10308076 0.025672933 0.15057491 -0.18122987
-0.088703535 0.14701055 0.06781777 -0.15620647 -0.16337156 -0.039504774 0.11954982 0.14653197
0.15781961 -0.0045923623 -0.52392817 0.12627119 -0.091333926 -0.48229146 0.15961106 -0.5370241
-0.020740846 0.26169556 -0.0065302183 -1.320376 -0.1359303 0.14580537 -0.27986324 -0.33216208
0.121025674 -1.1526515 0.1464349 0.26754427 0.063442506 -0.21880355 -0.13426277 0.009851909
0.07681727 0.17494151 -0.3434212 0.057980143 0.08898159 0.15814397 0.09862724 -0.040308483
-0.72794724 -0.023821974 0.06680752 -0.11008525 -0.78448415 0.5332734 -0.07959603 -0.072281234
0.31308967 -0.06660775 -0.30520767 0.103584886 0.04597088 0.01070626 -1.5922221 -0.7309927
-0.53143966 -0.9697802 0.20045796 0.06896376 0.042378567 0.04442774 0.06274247 0.10568126
-0.20728393 0.04155591 -0.0063386904 0.5528494 -0.068944745 -0.16016158 -0.02459978 0.028812172
0.64928484 0.056272432 -0.026156267 0.065783694 -1.1600163 -0.4744785 0.20895544 -0.32116932
-0.06234694 -0.04987212 -0.22806266 0.00854829 0.122271396 -0.0139590865 0.05867191 -1.006981
0.064913526 0.08695095 -0.35501283 0.3706996 0.18262853 0.15160921 0.16360684 -0.513739
-0.045502566 0.07772917 0.020128772 0.10580578 -0.16807333 0.15524068 0.110827945 0.13677393
-0.1492779 -0.009918535 0.25609294 -0.03084602 0.15343128 0.04226576 0.077388115 -0.08155025
-0.86266696 -0.1736932 -1.7118281 0.09544905 -0.17446685 0.21258649 -0.040498413 0.12252776
0.0636114 0.17018491 -0.008653717 -0.03874859 0.14081803 -0.12816632 0.055136215 0.26035258
0.041674614 -0.66071993 0.10525658 -0.11974058 0.25341228 -0.2928416 0.18559615 0.06586174
0.18992426 0.36812553 -0.6689041 0.044721317 -0.09874411 -0.39966434 0.08363318 -0.4828859
0.36699367 0.1636794 0.1423742 -1.1184602 -0.6334306 0.024585169 -0.014385381 -0.5127729
00000000: 92f4 a0bd 4ed9 d8be 8524 b83e c089 763e
00000010: a781 2c3e 8650 52be 0c62 2b3d 5a85 57be
00000020: d175 853e 5a6a 983d b736 07bf 39e4 903d
00000030: 995f ddbe 2930 373e 6550 38bd 09b5 373c
00000040: 39cf 88bf 4d80 62bd 2178 98be 4add b63e
00000050: 85ad 86bf 9995 043f c068 81be b50a 2fbe
00000060: 072e 8f3e 2b8a b93d 97da 14be 9f8b fe3d
00000070: 6d7f f73c bb5b 843e 4270 1bc0 9348 02bd
00000080: a174 73bf 25e4 5dbf 9e70 7e3e 17b6 c2be
00000090: b4ad cfbc 3b32 263d 658b 613d 9045 3b3e
000000a0: c58d 39be b393 d43d d3c1 963d b616 3d3d
000000b0: 659e b53d 5fce 41bd 84e7 fe3c 3c75 84bb
000000c0: e4ed be3e 054a 13be b1f1 a8be 8498 9e3d
000000d0: ce5d dfbf 415e 2fbf edaa 323e 2218 c3be
000000e0: e78f 40bf bbf1 8ebe 2e5c 20be 3232 fa3d
000000f0: 3c3a 79bb 7f61 383e 78aa 793d fab3 94bf
00000100: 2bf6 74be cdd4 c43d 63ae 8d3e 548a d73e
00000110: 2e4c 353e 27db ec3e 356e 743e 5751 fc3d
00000120: dd2a 90bc 02ff 1f3d 09e7 f4bd 798e 1c3e
00000130: 6f16 88be 1d62 8bbd eb36 943d 0785 4bbc
00000140: a5b7 75be c988 5fbd cd01 9b3e 1d6f 953c
00000150: 5272 e7bd bf89 3d3e 2fc3 7c3e 7acc 7c3d
00000160: b8a0 2abd dc0f 22be 09d4 21c0 586e 153e
00000170: 9eb3 1cbf 6e0d 3b3e 827f 863c 542d 7d3e
00000180: 40e7 163e dced 83bd af81 18be 85e0 f23d
00000190: 011c d33d 0b50 d23c 4f30 1a3e 5394 39be
000001a0: 33aa b5bd ef89 163e 0be4 8a3d 97f4 1fbe
000001b0: e04a 27be c2cf 21bd 89d6 f43d 7a0c 163e
000001c0: 779b 213e 877b 96bb 2820 06bf 3c4d 013e
000001d0: 480d bbbd e8ee f6be 1571 233e 697a 09bf
000001e0: b5e8 a9bc f6fc 853e 71fb d5bb 1502 a9bf
000001f0: 5031 0bbe 014e 153e 3c4a 8fbe 2611 aabe
00000200: 4fdc f73d 168a 93bf 08f3 153e 90fb 883e
00000210: 25ee 813d 0a0e 60be 2e7c 09be e769 213c
00000220: 5f52 9d3d de23 333e e7d4 afbe 967c 6d3d
00000230: fb3b b63d 7ef0 213e 14fd c93d 821a 25bd
00000240: c05a 3abf 4d26 c3bc 62d2 883d 6074 e1bd
00000250: f4d3 48bf 9b84 083f 3e03 a3bd 2f08 94bd
00000260: 4a4d a03e a569 88bd 2e44 9cbe 5024 d43d
00000270: f64b 3c3d 4f69 2f3c efcd cbbf 5622 3bbf
00000280: 6e0c 08bf 8443 78bf da44 4d3e df3c 8d3d
00000290: 2695 2d3d ddf9 353d 207f 803d 6b6f d83d
000002a0: 3d42 54be 8836 2a3d cab4 cfbb 8a87 0d3f
000002b0: e732 8dbd 6601 24be 7a85 c9bc 8107 ec3c
000002c0: 8837 263f ec7d 663d ab45 d6bc 9ab9 863d
000002d0: 6a7b 94bf d9ee f2be 6af8 553e 4e70 a4be
000002e0: 815f 7fbd b546 4cbd 4289 69be 200e 0c3c
000002f0: 6d69 fa3d a7b4 64bc f551 703d c1e4 80bf
00000300: 62f1 843d 5713 b23d 3ec4 b5be 57cc bd3e
00000310: f902 3b3e 723f 1b3e 8d88 273e 6684 03bf
00000320: e660 3abd 7930 9f3d 18e5 a43c b3b0 d83d
00000330: 6a1b 2cbe 6af7 1e3e c3f9 e23d 770e 0c3e
00000340: 4edc 18be 5a81 22bc 9d1e 833e cbb0 fcbc
00000350: 171d 1d3e dd1e 2d3d a97d 9e3d d103 a7bd
00000360: bed7 5cbf a1dc 31be 2f1d dbbf cb7a c33d
00000370: 70a7 32be 46b0 593e aae1 25bd d6ef fa3d
00000380: b246 823d f444 2e3e 52c8 0dbc d7b6 1ebd
00000390: 9a32 103e 083e 03be 83d6 613d ef4c 853e
000003a0: 00b3 2a3d f124 29bf c390 d73d 8d3a f5bd
000003b0: 41bf 813e 56ef 95be eb0c 3e3e 85e2 863d
000003c0: 817b 423e f37a bc3e 4d3d 2bbf b32d 373d
000003d0: 5a3a cabd cea0 ccbe df47 ab3d d23c f7be
000003e0: 98e6 bb3e 939b 273e 8bca 113e b429 8fbf
000003f0: 8228 22bf d666 c93c a9b0 6bbc 1645 03bf

fc2.bias f4 [128]
0.29247415 0.24655084 -0.06586003 0.34050816 0.23524721 0.001482207 0.31815794 0.26395687
0.45653427 0.33318335 -0.07426846 0.008211334 -0.0031029359 -0.33636153 0.37462497 0.036161896
-0.086978875 0.05458337 -0.05731953 -0.15698162 0.32628813 0.1895564 -0.27365002 0.29040384
-0.11189174 -0.02024199 0.006910176 0.13916299 0.03966079 -0.24741264 -0.3174742 0.38513273
0.13678807 0.2824856 0.2451192 0.020168012 -0.123065464 0.34368935 -0.08535394 -0.03430538
0.08566923 0.33562312 0.2123879 0.40899965 0.078579225 0.24053475 -0.11423445 0.414667
0.054679263 -0.037511885 0.24872987 -0.047923263 0.43367365 0.37195718 0.26919237 -0.109719
0.33869222 0.028001985 -0.24380128 -0.10273895 0.38895708 0.14586273 -0.29305848 -0.04761343
-0.107782036 -0.09918901 0.4187199 0.018852778 -0.24231261 0.01607941 -0.0808302 0.04721534
0.18793145 -0.30097657 0.3916545 0.066261224 -0.18693408 -0.07984864 -0.1864198 0.1422363
-0.07373259 -0.07315421 0.38281968 -0.053735886 0.1745133 -0.3152079 0.03476163 0.32716826
0.32431936 0.014113484 -0.0051400373 -0.031491123 -0.10749653 0.3460653 0.4114129 -0.07698514
-0.05954579 -0.19979227 -0.011733766 -0.10237113 -0.07179722 0.3779251 -0.118585676 -0.14052469
0.43503088 0.43812087 0.006691579 0.14985274 -0.13967784 -0.25798783 -0.12048918 -0.075086474
-0.058524378 0.040594134 0.32381818 0.44057208 0.101750046 0.36796463 0.33382276 0.3848466
-0.33482465 0.29289228 -0.104773715 -0.07956022 0.3968921 0.29232067 0.44950372 0.032834366
00000000: 2cbf 953e d377 7c3e a0e1 86bd 1657 ae3e
00000010: a5e4 703e 9d46 c23a 99e5 a23e 5b25 873e
00000020: dcbe e93e 0297 aa3e 101a 98bd d588 063c
00000030: a05a 4bbb 9437 acbe d8ce bf3e 7f1e 143d
00000040: fb21 b2bd d092 5f3d e2c7 6abd cabf 20be
00000050: 3d0f a73e 131b 423e db1b 8cbe d0af 943e
00000060: 7f27 e5bd 88d2 a5bc c26e e23b be80 0e3e
00000070: 5a73 223d bd59 7dbe fa8b a2be 1e30 c53e
00000080: 2c12 0c3e f4a1 903e 8700 7b3e 6337 a53c
00000090: bf09 fcbd 0df8 af3e 0cce aebd cc83 0cbd
000000a0: 5973 af3d cbd6 ab3e 377c 593e 6768 d13e
000000b0: 25ee a03d be4e 763e c0f3 e9bd 3c4f d43e
000000c0: 5df7 5f3d 10a6 19bd 0bb3 7e3e 2f4b 44bd
000000d0: 790a de3e 2c71 be3e 95d3 893e 5bb4 e0bd
000000e0: 1169 ad3e 6b64 e53c 0ba7 79be cc68 d2bd
000000f0: 6225 c73e 0a5d 153e c30b 96be 4d06 43bd
00000100: d4bc dcbd 9c23 cbbd 7462 d63e 2471 9a3c
00000110: cc20 78be f8b8 833c 4e8a a5bd df64 413d
00000120: 1a71 403e 9a19 9abe f086 c83e f7b3 873d
00000130: a66b 3fbe af87 a3bd d5e4 3ebe 65a6 113e
00000140: 1d01 97bd e0d1 95bd f100 c43e 291a 5cbd
00000150: 9db3 323e ee62 a1be 3662 0e3d 9982 a73e
00000160: 300d a63e 3e3c 673c c26d a8bb d6fc 00bd
00000170: 2427 dcbd 792f b13e b6a4 d23e 63aa 9dbd
00000180: 49e6 73bd 5896 4cbe fb3e 40bc f4a7 d1bd
00000190: 6c0a 93bd 667f c13e 0cdd f2bd b4e5 0fbe
000001a0: 5ebc de3e 6151 e03e 0845 db3b ff72 193e
000001b0: b507 0fbe fb16 84be 08c3 f6bd f0c6 99bd
000001c0: 42b7 6fbd 0946 263d 7fcb a53e aa92 e13e
000001d0: 5462 d03d dc65 bc3e d1ea aa3e 9d0a c53e
000001e0: 236e abbe faf5 953e 9a93 d6bd 78f0 a2bd
000001f0: 7135 cb3e 0eab 953e 5a25 e63e 547d 063d

fc3.weight f4 [2, 128]
0.35094744 0.18261614 -0.35152414 0.7142946 0.19790973 0.0075459867 0.5587961 0.600576
0.5763709 0.35332045 -1.9969121 0.035367675 0.0043817135 -1.2059574 0.525393 -0.45841318
0.0028328917 -0.07465579 -1.7848122 -0.89701754 0.837071 0.011802965 1.7813334 0.107970886
-0.25103068 -2.0787237 0.26836878 -0.6030253 -0.009492658 -0.72087544 -0.36929262 0.35797644
0.01540366 0.15391152 -0.10549448 0.03403358 -0.023631623 0.7882418 -0.05340567 0.059145674
-3.6375546 1.1226931 0.6358149 0.5886174 -2.2251205 0.34166783 0.059653256 0.50277925
0.88066465 -3.027334 0.4161415 -0.030003686 0.8233339 0.52984756 0.6226616 -0.025135403
0.08736995 0.07193521 -0.819862 0.022423612 0.33214408 -3.5647087 -0.51644194 -0.054391425
-1.7821568 -1.9063474 0.7910283 -0.009752443 0.6484905 0.024316162 -0.51020664 -0.41882777
0.09168767 0.35193175 0.5595431 0.34612864 -0.768697 -0.03944103 -1.1843902 -0.5624113
-0.016944032 -0.037137672 0.39247614 -0.00895968 0.3103097 -1.6386576 -0.024868544 0.24309236
0.4112143 -0.53131306 -0.08153214 -2.1225135 0.022136463 0.4445218 0.5970008 -0.3600591
-2.0573347 -0.30415344 0.0064516305 0.006391037 -1.8067288 0.7604659 -0.22116019 1.5238453
0.7064711 0.5645944 0.027280321 -2.987298 -0.3942171 -0.3497262 -0.0035506778 -1.7634709
0.00012782025 -0.040580444 0.27484542 0.3979202 0.12094911 0.56070095 0.3764024 0.47606444
-1.2394112 0.30609092 -0.033709142 -0.022487149 0.50109196 0.83342606 0.23199704 0.025008652
0.4236095 0.13129435 0.00044660992 0.8040965 -0.12384282 0.070231535 0.106676534 -0.053619627
0.6041478 0.52553976 2.0884275 0.013533277 0.018682564 -1.0084159 0.7888333 -1.8009657
0.00335517 0.048551925 -2.4921083 0.48345092 0.80246586 -1.9959514 -1.636379 0.2452033
-0.20666912 -0.7126043 -0.19646494 0.39499697 0.055553798 -0.7620653 -0.07805269 0.432199
-2.050018 0.41289747 -2.6486938 0.0073400405 0.031843893 0.779265 -0.087140076 0.058766827
-1.8670461 0.33141786 -2.2975247 0.7056168 0.23657572 -0.07823082 -0.019694567 0.6481697
-0.44772607 -1.8054857 0.4660625 0.017553765 0.83437276 0.4696727 0.57257766 -0.013165315
0.5451884 -0.038186044 -0.75063074 -0.092937835 0.3744156 -2.8790808 -0.7696001 -0.02161912
2.3359509 0.25931603 -0.0966976 0.0015022511 -1.298783 0.029329745 0.1493392 -0.0048933863
-0.46684927 -0.92988354 0.59378505 -0.4234277 -0.45954782 0.01627161 0.05380806 0.16818905
-0.0271414 0.07567721 0.64287364 0.0139583675 0.44978654 -0.64035666 0.06269755 -0.63003695
0.6331013 0.051321737 -0.06435021 0.45965427 0.05055553 0.611945 0.72486955 -1.0996165
0.88753176 -0.7382272 0.033903725 -0.022570003 -1.8734199 0.7206786 -0.28062263 -2.1279557
0.49180815 0.58017087 -0.050668057 -0.0043204073 0.09897856 -0.006958726 -0.0060606534 1.7200731
0.0012969758 0.0027131736 0.34671843 0.68148154 -2.1705058 0.040832687 0.37229386 0.6084838
-0.65225095 0.3972875 -0.002650534 0.056561083 0.6759883 0.9157782 0.83431613 0.012338902
00000000: 62af b33e baff 3a3e f9fa b3be 03dc 363f
00000010: d9a8 4a3e 5344 f73b 430d 0f3f 59bf 193f
00000020: 0b8d 133f 6be6 b43e d19a ffbf b2dd 103d
00000030: 7a94 8f3b d05c 9abf 2880 063f 22b5 eabe
00000040: 09a8 393b 23e5 98bd ba74 e4bf f1a2 65bf
00000050: 494a 563f 3961 413c bc02 e43f d71f dd3d
00000060: 1887 80be cf09 05c0 a267 893e de5f 1abf
00000070: 1887 1bbc 4b8b 38bf ec13 bdbe b048 b73e
00000080: a25f 7c3c fb9a 1d3e 7d0d d8bd cc66 0b3d
00000090: 1b97 c1bc 37ca 493f e7bf 5abd bc42 723d
000000a0: b2cd 68c0 68b4 8f3f c4c4 223f a1af 163f
000000b0: 6068 0ec0 16ef ae3e f956 743d 24b6 003f
000000c0: 3d73 613f d7bf 41c0 8010 d53e 4aca f5bc
000000d0: 03c6 523f 17a4 073f c066 1f3f c3e8 cdbc
000000e0: 04ef b23d c452 933d 7ae2 51bf b9b1 b73c
000000f0: ca0e aa3e 3024 64c0 8a35 04bf 8bc9 5ebd
00000100: b71d e4bf 3103 f4bf d580 4a3f b6c8 1fbc
00000110: 7903 263f b032 c73c e79c 02bf 9870 d6be
00000120: bfc6 bb3d 6630 b43e 373e 0f3f c637 b13e
00000130: 54c9 44bf eb8c 21bd 199a 97bf 30fa 0fbf
00000140: 36ce 8abc ac1d 18bd a2f2 c83e 9fcb 12bc
00000150: eae0 9e3e 88bf d1bf 1eb9 cbbc 34ed 783e
00000160: ae8a d23e 2204 08bf 53fa a6bd 43d7 07c0
00000170: 8757 b53c 5d98 e33e 0bd5 183f ab59 b8be
00000180: 5fab 03c0 00ba 9bbe 3368 d33b e76b d13b
00000190: e442 e7bf e5ad 423f d177 62be 5d0d c33f
000001a0: 4adb 343f 4289 103f fb7a df3c e42f 3fc0
000001b0: d3d6 c9be 500f b3be 7db2 68bb 6ab9 e1bf
000001c0: 7d07 0639 ae37 26bd 8ab8 8c3e 32bc cb3e
000001d0: 2bb4 f73d 198a 0f3f d1b7 c03e b8be f33e
000001e0: 07a5 9ebf f3b7 9c3e 9912 0abd f836 b8bc
000001f0: 9047 003f 695b 553f a290 6d3e f2de cc3c
00000200: 58e3 d83e 0772 063e f826 ea39 45d9 4d3f
00000210: 4ea1 fdbd 8dd5 8f3d 3a79 da3d 41a0 5bbd
00000220: 6ea9 1a3f c689 063f cca8 0540 aeba 5d3c
00000230: 2d0c 993c c613 81bf fbf0 493f 0b86 e6bf
00000240: 69e2 5b3b 62de 463d b47e 1fc0 e186 f73e
00000250: 676e 4d3f 567b ffbf de74 d1bf 9316 7b3e
00000260: 12a1 53be 3c6d 36bf 1b2e 49be 0b3d ca3e
00000270: 618c 633d b616 43bf 17da 9fbd 3049 dd3e
00000280: 7f33 03c0 4c67 d33e 3384 29c0 b984 f03b
00000290: be6e 023d e97d 473f 7f76 b2bd 7cb5 703d
000002a0: 5efb eebf 9aaf a93e a50a 13c0 4da3 343f
000002b0: e840 723e 7b37 a0bd 8056 a1bc 73ee 253f
000002c0: 5a3c e5be 281a e7bf be9f ee3e eacc 8f3c
000002d0: 7499 553f f178 f03e 7394 123f 55b3 57bc
000002e0: 7891 0b3f f868 1cbd 5629 40bf 3156 bebd
000002f0: 67b3 bf3e dc42 38c0 8304 45bf 951a b1bc
00000300: 3880 1540 12c5 843e 6409 c6bd 2fe7 c43a
00000310: 853e a6bf ef44 f03c 60ec 183e b358 a0bb
00000320: de06 efbe d90c 6ebf 4c02 183f 84cb d8be
00000330: da49 ebbe 0a4c 853c d765 5c3d c039 2c3e
00000340: a457 debc a7fc 9a3d 5e93 243f a3b1 643c
00000350: 6c4a e63e 6aee 23bf 9367 803d 1a4a 21bf
00000360: ed12 223f be36 523d 0bca 83bd ce57 eb3e
00000370: 5113 4f3d 6da8 1c3f 0d91 393f 3cc0 8cbf
00000380: 4835 633f 75fc 3cbf a2de 0a3d bae4 b8bc
00000390: 39cc efbf 657e 383f c5ad 8fbe 6d30 08c0
000003a0: 47ce fb3e 1486 143f 4f89 4fbd 3492 8dbb
000003b0: 45b5 ca3d 0606 e4bb 7298 c6bb 5b2b dc3f
000003c0: 49ff a93a 80cf 313b 1485 b13e 9375 2e3f
000003d0: 91e9 0ac0 2d40 273d 4d9d be3e 98c5 1b3f
000003e0: ebf9 26bf 4469 cb3e 95b4 2dbb 98ac 673d
000003f0: 920d 2d3f 7170 6a3f be95 553f 1b29 4a3c

fc3.bias f4 [2]
0.20885958 0.18859757
00000000: 49df 553e b91f 413e
