weights/replay_buffer.pth (torch, 72669 bytes, 6 tensors)

fc1.weight f4 [128, 4]
-0.18798836 -0.3584498 -0.39552793 0.32435176 -0.4213221 -0.33145842 0.19453089 -0.36232254
0.34009168 -0.070748955 0.5057221 -0.094582066 -0.051397976 0.13462569 -0.44084805 0.36727202
-0.5927804 0.30286202 -0.2608344 0.15585476 -0.5086665 0.057451807 -0.12101865 -0.4132061
-0.042236213 -0.16832565 0.12519482 0.41237167 -0.079154074 0.23298818 -0.347354 0.37163103
0.08414842 0.47173545 -0.16143034 -0.33198887 0.5634424 -0.31823304 -0.51819086 0.33054867
-0.19579318 -0.12680209 0.13538402 0.049135927 0.19545646 0.31544054 0.31183702 -0.24609114
-0.19920276 0.15487838 -0.34086198 0.3329359 -0.28476977 0.25888965 0.43404752 -0.019366937
0.25603074 -0.16173062 -0.4231633 -0.24391967 -0.13290443 -0.37667853 -0.37760872 -0.23689656
0.08870298 0.24959642 0.5230257 -0.23020262 0.043143537 -0.06273103 -0.05731267 -0.059829473
-0.0026920438 0.31404573 0.021168172 0.33268756 0.31732255 -0.41323513 -0.11367329 0.06986206
0.030360129 -0.30255666 0.22849485 -0.3169907 0.055479813 0.43108365 0.1530225 0.21393533
-0.29756925 -0.37452883 -0.39665732 -0.17653064 0.37126604 0.09522968 0.36107144 0.33233067
0.22441857 -0.1743769 0.30871162 0.18295807 -0.16113175 0.27673906 0.12247351 0.5065409
0.18843803 -0.35296527 -0.36934283 0.059032336 0.35633266 -0.10498303 0.34082437 -0.24379432
-0.02960351 -0.38121834 0.025947625 -0.10476152 0.48114234 -0.12586224 -0.07676524 -0.0085182255
0.19341591 -0.3228179 0.24499057 -0.27904347 0.29575914 -0.12180901 -0.28507614 -0.15924412
-0.29382643 0.32040146 -0.07442912 0.3731576 -0.37264988 -0.47954455 0.19490212 -0.41124442
-0.44895998 -0.13031311 -0.029102271 -0.30995736 0.44574273 -0.21885669 0.08857405 -0.25321102
-0.061157987 0.10009873 0.28919363 0.2351924 -0.044767164 0.32796955 0.18006088 0.42953163
0.14920227 0.22011644 0.31683403 0.19900173 0.14980094 -0.3437043 0.024607372 0.20583978
0.49195182 0.28501576 0.20764408 -0.28374547 0.09981706 -0.030040454 -0.08922933 0.10224354
-0.23825017 0.1708727 -0.19055423 -0.41515654 0.0059255916 -0.4315848 0.07046247 0.49615568
-0.21628518 -0.38608027 -0.14501652 0.061711043 -0.04483332 -0.045826826 0.35135293 -0.1007085
0.16610697 -0.23073159 -0.044886615 0.25069022 -0.25584993 -0.4224349 -0.045141093 0.040789638
0.07337791 -0.3712387 -0.2880601 -0.08441207 0.19521132 0.45104146 0.11425065 0.15550058
0.08627569 0.30243367 -0.41250715 -0.39211357 -0.3150643 0.35252112 -0.15520182 -0.34576464
0.28922433 0.295892 0.053451534 -0.3496903 -0.2937138 -0.26773113 -0.28102818 0.2559441
-0.025889516 0.21844304 0.13548696 0.25027972 -0.046608098 0.30155638 -0.13778602 -0.19148599
0.06739264 -0.17823365 0.26604432 0.28687337 -0.17856486 -0.4500514 -0.078742266 -0.5074321
-0.026804926 0.5603044 -0.47610247 0.29341787 0.07047124 -0.31021038 -0.36375764 0.16139214
0.083263695 -0.17967877 -0.3348137 -0.4065094 0.14335817 -0.3853704 0.36489913 0.010916214
-0.18729529 -0.37290975 -0.15760198 0.22325501 -0.13290416 0.13067047 0.16968746 -0.49467164
00000000: 0580 40be bb86 b7be a382 cabe 6f11 a63e
00000010: 88b7 d7be ebb4 a9be 1b33 473e 5782 b9be
00000020: 7f20 ae3e d4e4 90bd 0177 013f 3eb4 c1bd
00000030: af86 52bd 51db 093e d6b6 e1be 140b bc3e
00000040: 75c0 17bf bb10 9b3e 168c 85be 6498 1f3e
00000050: f837 02bf 9652 6b3d a0d8 f7bd c08f d3be
00000060: e1ff 2cbd 8f5d 2cbe 1233 003e 6122 d33e
00000070: 881b a2bd 7494 6e3e 62d8 b1be 6c46 be3e
00000080: 0256 ac3d 4f87 f13e ff4d 25be 72fa a9be
00000090: c33d 103f 71ef a2be 28a8 04bf ad3d a93e
000000a0: 027e 48be 68d8 01be 1ca2 0a3e c142 493d
000000b0: bd25 483e 6c81 a13e 1aa9 9f3e 51ff 7bbe
000000c0: cffb 4bbe 7098 1e3e 7685 aebe 9376 aa3e
000000d0: 58cd 91be 2f8d 843e 7a3b de3e 69a7 9ebc
000000e0: 7616 833e b69c 25be dca8 d8be 14c6 79be
000000f0: 1918 08be 02dc c0be ee55 c1be 0395 72be
00000100: e8a9 b53d 3496 7f3e 03e5 053f 3cba 6bbe
00000110: 47b7 303d 2079 80bd b1c0 6abd c00f 75bd
00000120: 006d 30bb 9aca a03e e068 ad3c 0656 aa3e
00000130: 1a78 a23e 8e93 d3be 8bcd e8bd d713 8f3d
00000140: ceb5 f83c b5e8 9abe 8efa 693e 9b4c a2be
00000150: cd3e 633d ffb6 dc3e eeb1 1c3e dd11 5b3e
00000160: ff5a 98be 3ec2 bfbe ab16 cbbe 73c4 34be
00000170: 9516 be3e c707 c33d 5bde b83e 3f27 aa3e
00000180: fbcd 653e dc8f 32be 730f 9e3e 5c59 3b3e
00000190: b9ff 24be beb0 8d3e 64d3 fa3d aaac 013f
000001a0: e6f5 403e ddb7 b4be 811a bdbe e4cb 713d
000001b0: 3c71 b63e 5801 d7bd 8880 ae3e 38a5 79be
000001c0: 0f83 f2bc 0d2f c3be 1d90 d43c 358d d6bd
000001d0: 4a58 f63e 08e2 00be 1837 9dbd 0790 0bbc
000001e0: d20e 463e 6348 a5be cfde 7a3e c9de 8ebe
000001f0: be6d 973e 0177 f9bd 80f5 91be e410 23be
00000200: 6b70 96be a90b a43e 4b6e 98bd 830e bf3e
00000210: f7cb bebe dd86 f5be 6c94 473e a18e d2be
00000220: 15de e5be cd70 05be e367 eebc bbb2 9ebe
00000230: 6438 e43e f81b 60be 5066 b53d e0a4 81be
00000240: cc80 7abd 9000 cd3d 3011 943e 47d6 703e
00000250: c65d 37bd a0eb a73e e161 383e 92eb db3e
00000260: 7bc8 183e 3466 613e 1238 a23e 1cc7 4b3e
00000270: 6b65 193e 03fa afbe 6695 c93c aac7 523e
00000280: 1ce1 fb3e 96ed 913e a6a0 543e 1647 91be
00000290: e36c cc3d 6617 f6bc debd b6bd 1065 d13d
000002a0: daf7 73be 41f9 2e3e a620 43be 668f d4be
000002b0: 772b c23b aff8 dcbe a14e 903d 1e08 fe3e
000002c0: dd79 5dbe 50ac c5be 367f 14be b8c4 7c3d
000002d0: 25a3 37bd e9b4 3bbd 88e4 b33e 4240 cebd
000002e0: f217 2a3e e744 6cbe 07db 37bd 785a 803e
000002f0: c3fe 82be 6349 d8be dee5 38bd 0913 273d
00000300: 2847 963d 0013 bebe 9d7c 93be 3ce0 acbd
00000310: 7ae5 473e e8ee e63e 3ffc e93d 8b3b 1f3e
00000320: 4fb1 b03d 96d8 9a3e 2334 d3be 1cc3 c8be
00000330: 1c50 a1be a67d b43e 3aed 1ebe 1008 b1be
00000340: 3615 943e 287f 973e ffef 5a3d 9b0a b3be
00000350: a861 96be 0e14 89be ede2 8fbe 1b0b 833e
00000360: 4016 d4bc 88af 5f3e 18bd 0a3e aa24 803e
00000370: 22e8 3ebd 9965 9a3e c717 0dbe e714 44be
00000380: 2705 8a3d e282 36be f636 883e 11e1 923e
00000390: b5d9 36be 236d e6be a043 a1bd 12e7 01bf
000003a0: 0196 dbbc 1c70 0f3f b4c3 f3be de3a 963e
000003b0: 3a53 903d e5d3 9ebe 713e babe fb43 253e
000003c0: 2886 aa3d b6fd 37be b46c abbe 0022 d0be
000003d0: 7ccc 123e 454f c5be 0fd4 ba3e ecd9 323c
000003e0: 56ca 3fbe 07ee bebe 6a62 21be f69c 643e
000003f0: 0718 08be 7bce 053e 8dc2 2d3e 9a45 fdbe

fc1.bias f4 [128]
0.3797817 -0.26866606 0.5251609 0.28675148 0.38642046 0.09000958 -0.19139926 -0.43543333
0.218992 -0.056525625 -0.12274641 0.08356953 0.24727628 -0.18003678 0.38569987 0.5238513
0.39564672 0.49317133 -0.43083155 0.38241684 0.09185514 0.33784667 -0.0023937644 0.4042497
0.21895015 -0.1849582 -0.19702603 -0.47165215 -0.25377265 -0.018231425 0.12696937 0.24524899
0.41124505 -0.26680657 -0.25880608 -0.30390668 0.2831919 0.29157317 0.33028328 -0.029438615
-0.4306858 -0.078897096 -0.13727573 -0.22117324 0.5126946 0.3646599 0.22107905 0.09791273
-0.41059142 -0.06660801 0.052811615 -0.4755298 -0.28933445 0.2834286 -0.49311328 -0.21112065
-0.41884133 0.45109046 -0.04620951 -0.31741592 -0.2107282 0.28278938 -0.47840562 -0.41488478
0.043113634 -0.2376476 -0.21669243 -0.2947044 0.45222265 -0.21833381 -0.5256525 -0.4690416
-0.19570865 0.25921118 0.3040362 -0.2694314 -0.1006099 -0.12892325 -0.2723986 0.3365273
-0.41161627 -0.4400102 -0.10284999 -0.39288387 -0.25897095 0.22641169 -0.44146624 0.10333168
-0.28947392 0.48045716 0.4729766 0.0677934 0.15954213 -0.015652247 0.45336396 0.10588506
0.2403995 -0.23910278 0.21932505 -0.19536792 -0.070796974 -0.40359628 0.18715698 0.038019825
-0.49212688 -0.40690595 0.0684169 0.16053137 0.004208772 -0.47838318 0.038395703 0.4387767
-0.3573631 0.113695055 -0.3346873 0.23174158 0.18299739 -0.24920464 -0.09352398 -0.203432
-0.44721594 -0.36909503 0.4580911 -0.13608165 -0.42987347 -0.25099155 -0.10249653 -0.23379956
00000000: bf72 c23e 998e 89be f270 063f 17d1 923e
00000010: e7d8 c53e f156 b83d 2bfe 43be 1ef1 debe
00000020: 703f 603e 6a87 67bd 7862 fbbd 8026 ab3d
00000030: fe35 7d3e 905b 38be 747a c53e 1e1b 063f
00000040: 3592 ca3e f480 fc3e f495 dcbe 24cc c33e
00000050: 8c1e bc3d 3dfa ac3e b4e0 1cbb d1f9 ce3e
00000060: 7834 603e af65 3dbe 31c1 49be 647c f1be
00000070: 7dee 81be 125a 95bc 4204 023e 8d22 7b3e
00000080: b68e d23e df9a 88be 3b82 84be a899 9bbe
00000090: 87fe 903e 1449 953e e41a a93e 4029 f1bc
000000a0: d982 dcbe cd94 a1bd 0292 0cbe 3d7b 62be
000000b0: f43f 033f b4b4 ba3e 8c62 623e 7886 c83d
000000c0: 0a39 d2be c869 88bd fe50 583d a478 f3be
000000d0: a523 94be 8e1d 913e 5879 fcbe 0330 58be
000000e0: 5f72 d6be 54f5 e63e 2f46 3dbd 5784 a2be
000000f0: 22c9 57be c5c9 903e 95f1 f4be c76b d4be
00000100: ec97 303d e459 73be 9fe4 5dbe 7fe3 96be
00000110: ba89 e73e e692 5fbe 2a91 06bf 3826 f0be
00000120: d967 48be 54b7 843e a2aa 9b3e eaf2 89be
00000130: 900c cebd 7504 04be d477 8bbe 4e4d ac3e
00000140: 5ebf d2be 0449 e1be 04a3 d2bd 1328 c9be
00000150: d797 84be 77d8 673e dd07 e2be 8f9f d33d
00000160: ed35 94be 7bfe f53e fd29 f23e 44d7 8a3d
00000170: 035f 233e 2439 80bc 521f e83e 44da d83d
00000180: 492b 763e 5cd7 74be bf96 603e 870e 48be
00000190: 01fe 90bd 2ca4 cebe 14a6 3f3e adba 1b3d
000001a0: 0ef8 fbbe fa55 d0be 291e 8c3d 5662 243e
000001b0: bde9 893b a4ee f4be d044 1d3d 57a7 e03e
000001c0: 4cf8 b6be f4d8 e83d 225c abbe aa4d 6d3e
000001d0: ab63 3b3e 802f 7fbe 8089 bfbd 7a50 50be
000001e0: 7df9 e4be 06fa bcbe eb8a ea3e fd58 0bbe
000001f0: 6018 dcbe f781 80be b3e9 d1bd 2769 6fbe

fc2.weight f4 [128, 128]
-0.048889037 0.071271576 -0.051985357 -0.014625089 0.014702204 -0.024694405 0.07573526 -0.033928066
0.010504915 0.0951254 -0.085139416 0.008995139 0.06637992 -0.100929454 -0.007322584 -0.06418562
0.04536058 -0.016530823 0.035998784 -0.027668752 -0.009622444 -0.09390245 0.09008092 -0.09378608
-0.086257905 0.088256635 -0.013805978 0.0090516135 0.048406072 0.03778579 0.04404929 -0.01202086
0.0074845 0.072425835 0.011345476 -0.034913175 -0.06853053 -0.065926135 -0.04404178 0.065327324
-0.026113542 -0.0088369595 -0.058117796 -0.01389043 -0.079692565 0.059310503 0.01361724 0.037631556
-0.06731994 0.058279913 -0.018958868 0.0042464975 -0.051078264 -0.041045625 -0.06528494 0.043671366
-0.057223007 0.06801944 0.08212832 -0.01398439 0.026132325 -0.08484665 0.06105689 -0.097534955
-0.07063426 0.064915836 -0.03319199 0.016976202 0.04424966 0.056584455 -0.08626366 0.0726578
-0.009847179 0.049539417 -0.025280427 0.07303596 -0.03999587 -0.0070672855 0.08174787 -0.059619337
-0.03209495 0.06381177 0.063368715 -0.014357053 0.0066326708 0.029054318 0.026567804 -0.103520975
0.0789564 0.04330581 0.07067542 -0.08260717 -0.036614936 0.082334 -0.04292436 0.037660003
-0.09153456 -0.005555369 -0.023319473 -0.03435958 -0.047820326 0.0062674284 0.04861094 -0.01888481
0.048212267 0.0030980816 0.03568338 -0.00025817103 -0.087632276 -0.025200168 -0.031077007 -0.045214493
-0.059355512 0.022542702 0.04813402 -0.07964706 0.03532058 -0.060408063 -0.018357418 -0.02674307
0.085690804 0.021799974 -0.016165085 0.03791798 -0.05192105 -0.043824747 -0.0016049594 -0.081485085
0.07852821 0.06345295 0.04442419 0.05588411 0.02398787 -0.06738392 -0.096071206 0.06612391
0.036997683 -0.027995773 -0.11297832 0.06989243 0.041827604 0.078437075 0.0072490997 0.107483365
0.09582038 0.037313305 0.016136207 -0.011735095 -0.045811348 0.007311183 0.021776414 -0.01763581
0.10474557 -0.2875377 0.017080674 0.02098792 0.0005911621 -0.03515539 -0.047016006 0.0021123276
-0.010367802 -0.106428325 -0.0054598995 0.06961555 0.09167573 0.12026454 0.12422619 -0.01187228
-0.0645331 0.008507844 0.0056217564 -0.10857644 -0.034096774 0.050792463 0.034103088 -0.030376906
-0.04259145 -0.042366724 -0.024432752 -0.016060377 -0.06954049 0.049348067 0.060210116 -0.081185214
-0.055192143 0.044480935 -0.1235385 0.031163061 -0.30236426 0.0011984092 -0.059618782 -0.09772924
-0.025652597 -0.3100045 0.05261942 -0.021330895 0.026511086 0.045177456 -0.11196656 0.02565183
-0.09922001 0.035259835 0.11292861 -0.07951206 -0.0032464839 0.004003415 0.03670091 -0.037935786
-0.029651245 -0.09973397 0.078618385 -0.04076516 -0.47072983 0.09496185 0.02336323 0.109994374
-0.014355604 0.09300863 -0.023977889 -0.03895636 0.009076177 -0.015802758 0.10581313 0.008737294
-0.022040114 -0.045393083 0.006643499 -0.046141226 -0.23647514 -0.071474254 0.12959068 0.049387127
-0.030444395 -0.06271426 0.021714147 0.096423596 0.05543238 -0.020229857 -0.0002582471 0.07627057
-0.13837962 0.013104193 0.057077814 0.034402635 0.050081246 -0.05604659 -0.051654465 -0.08544983
-0.18275176 -0.08951194 0.017641522 -0.024396466 -0.032624852 -0.3931514 -0.023414295 -0.03664422
00000000: df3f 48bd d5f6 913d 99ee 54bd 129e 6fbc
00000010: 83e1 703c ec4b cabc 171b 9b3d 28f8 0abd
00000020: cf1c 2c3c 1bd1 c23d 935d aebd 5960 133c
00000030: 32f2 873d 1ab4 cebd 49f2 efbb c073 83bd
00000040: 04cc 393d a66b 87bc 7673 133d 94a9 e2bc
00000050: 75a7 1dbc ed4f c0bd 587c b83d eb12 c0bd
00000060: fca7 b0bd e5bf b43d 7832 62bc 384d 143c
00000070: 7245 463d 46c5 1a3d 076d 343d 24f3 44bc
00000080: 8940 f53b ff53 943d 60e2 393c 1e01 0fbd
00000090: bc59 8cbd 4804 87bd 2765 34bd 55ca 853d
000000a0: 11ec d5bc e5c8 10bc ed0c 6ebd b094 63bc
000000b0: db35 a3bd 92ef 723d d81a 5f3c 8c23 1a3d
000000c0: 09df 89bd ebb6 6e3d a14f 9bbc 3426 8b3b
000000d0: 7137 51bd 751f 28bd 1cb4 85bd bfe0 323d
000000e0: ac62 6abd c74d 8b3d e532 a83d c81e 65bc
000000f0: 7513 d63c 15c4 adbd ca16 7a3d 68c0 c7bd
00000100: b2a8 90bd 98f2 843d 53f4 07bd ad11 8b3c
00000110: 223f 353d 1ac5 673d 00ab b0bd 9dcd 943d
00000120: 1056 21bc d8e9 4a3d e618 cfbc e193 953d
00000130: b6d2 23bd b094 e7bb 6d6b a73d 6833 74bd
00000140: ff75 03bd bfaf 823d 75c7 813d d839 6bbc
00000150: e056 d93b 5203 ee3c b9a4 d93c ce02 d4bd
00000160: e5b3 a13d 6f61 313d 46be 903d f32d a9bd
00000170: 8bf9 15bd ba9e a83d 74d1 2fbd 6041 1a3d
00000180: 7976 bbbd d009 b6bb 7b08 bfbc a2bc 0cbd
00000190: 3fdf 43bd 005f cd3b 441c 473d 51b4 9abc
000001a0: 3a7a 453d 2f09 4b3b bc28 123d 215b 87b9
000001b0: 8d78 b3bd 9570 cebc 3595 febc d532 39bd
000001c0: c41e 73bd 79ab b83c 2e28 453d ff1d a3bd
000001d0: 50ac 103d 726e 77bd 4c62 96bc 4814 dbbc
000001e0: a97e af3d dc95 b23c a46c 84bc e24f 1b3d
000001f0: 2bab 54bd 9481 33bd 805d d2ba a7e1 a6bd
00000200: 66d3 a03d 9ff3 813d 24f6 353d bde6 643d
00000210: 3682 c43c 9500 8abd fbc0 c4bd f96b 873d
00000220: e28a 173d 6457 e5bc 2d61 e7bd c323 8f3d
00000230: 6c53 2b3d 9ea3 a03d db89 ed3b 3d20 dc3d
00000240: 7a3d c43d d6d5 183d 1430 843c 8e44 40bc
00000250: aea4 3bbd a692 ef3b 7364 b23c f978 90bc
00000260: d884 d63d 2438 93be c5ec 8b3c dcee ab3c
00000270: 38f8 1a3a 19ff 0fbd db93 40bd fa6e 0a3b
00000280: b7dd 29bc 18f7 d9bd f5e8 b2bb 9992 8e3d
00000290: 7cc0 bb3d 414d f63d 4d6a fe3d f483 42bc
000002a0: ee29 84bd 7c64 0b3c b636 b83b 535d debd
000002b0: 0fa9 0bbd c20b 503d aeaf 0b3d fdd8 f8bc
000002c0: 5f74 2ebd bb88 2dbd 3227 c8bc 0d91 83bc
000002d0: 3f6b 8ebd 3321 4a3d e29e 763d 6f44 a6bd
000002e0: 2811 62bd a431 363d c101 fdbd ad49 ff3c
000002f0: 7dcf 9abe f113 9d3a d332 74bd 4526 c8bd
00000300: 6525 d2bc e9b8 9ebe 7687 573d 21be aebc
00000310: c72d d93c ff0b 393d b94e e5bd c923 d23c
00000320: dc33 cbbd 9e6c 103d 1d47 e73d 38d7 a2bd
00000330: f6c2 54bb 142f 833b b253 163d 8e62 1bbd
00000340: 2be7 f2bc 5341 ccbd ad02 a13d 5ef9 26bd
00000350: 8003 f1be 5c7b c23d 3f64 bf3c bb44 e13d
00000360: c433 6bbc 4f7b be3d 476d c4bc b490 1fbd
00000370: 3fb4 143c c974 81bc 8eb4 d83d de26 0f3c
00000380: 788d b4bc 19ee 39bd b5b1 d93b 95fe 3cbd
00000390: 8a26 72be 1861 92bd 6bb3 043e 284a 4a3d
000003a0: 8666 f9bc 5570 80bd dee1 b13c bc79 c53d
000003b0: 100d 633d 16b9 a5bc 5765 87b9 bf33 9c3d
000003c0: 63b3 0dbe f8b2 563c 6dca 693d c7e9 0c3d
000003d0: fe21 4d3d 1c91 65bd a293 53bd 5200 afbd
000003e0: 4723 3bbe 0952 b7bd f484 903c 19db c7bc
000003f0: a3a1 05bd 244b c9be 56cf bfbc 4018 16bd

fc2.bias f4 [128]
0.009837768 0.008194903 0.021540413 -0.05453678 -0.011098053 -0.044403195 0.006590372 -0.09338906
0.052807447 -0.061428256 -0.03599229 -0.08001788 0.013996654 -0.015057339 0.035336167 0.060485728
0.034724504 -0.04832851 0.006949167 0.04889536 -0.040296875 0.0017255371 0.018977521 -0.089033835
-0.005150946 -0.08798882 -0.052660316 -0.04186715 0.09941572 0.099232934 0.03444785 -0.086459935
0.032656763 0.048479218 0.050646313 0.11292864 -0.023196826 -0.088971876 -0.07265166 -0.06495328
0.10801084 0.06764835 0.03402949 0.098079465 0.003939738 -0.014919936 0.038953103 -0.05517789
0.05182105 -0.08311256 -0.0045855935 0.013003759 -0.05324674 -0.026083648 0.055782706 0.082288645
-0.095345214 -0.040935453 -0.003911964 -0.06257263 0.052590717 -0.09145942 -0.07923539 0.047445763
0.005855355 0.02396436 -0.012381836 -0.032164812 -0.0399768 0.004886542 0.038173057 0.087701015
-0.05208152 0.045787018 0.052656177 0.0072287875 0.0041064126 -0.02068541 0.012826608 -0.016081989
0.0011597642 0.10130832 -0.028235314 0.02068657 0.027768195 -0.07285381 0.016390909 -0.032337338
-0.066746116 0.0751141 0.06223143 -0.023284279 -0.02161636 0.014260318 0.11203048 0.123249084
-0.034482412 0.025671316 0.12223224 0.030332424 0.005980641 0.038319387 -0.06880976 0.064827755
0.059801415 0.0015952288 0.024420423 0.10010031 0.0017850832 0.12824863 0.09238078 -0.057161316
-0.10368702 0.0069622453 0.058339898 -0.07790798 -0.039673477 -0.013230052 0.12301958 -0.056634508
0.061150856 0.055278726 -0.053479325 -0.035100948 -0.067293346 -0.08833354 -0.016548544 0.023965659
00000000: 972e 213c ea43 063c 8575 b03c f561 5fbd
00000010: 9cd4 35bc 20e0 35bd 0cf4 d73b c342 bfbd
00000020: 9f4c 583d 329c 7bbd a76c 13bd 6ae0 a3bd
00000030: 3952 653c 0fb3 76bc a8bc 103d e2bf 773d
00000040: 483b 0e3d 1ef4 45bd d6b5 e33b 8046 483d
00000050: 560e 25bd 6b2b e23a bf76 9b3c 5f57 b6bd
00000060: 44c9 a8bb 7c33 b4bd 58b2 57bd e47c 2bbd
00000070: 789a cb3d a33a cb3d 3019 0d3d e811 b1bd
00000080: 19c3 053d 2592 463d 8272 4f3d 2147 e73d
00000090: 4507 bebc e336 b6bd 65ca 94bd 3a06 85bd
000000a0: ca34 dd3d 388b 8a3d 8262 0b3d e3dd c83d
000000b0: eb18 813b bf72 74bc 4a8d 1f3d 3602 62bd
000000c0: 4f42 543d eb36 aabd bf42 96bb b80d 553c
000000d0: 4119 5abd 60ad d5bc 687c 643d f386 a83d
000000e0: 5a44 c3bd efab 27bd ef2f 80bb 1426 80bd
000000f0: 5d69 573d 144f bbbd 2a46 a2bd 7d56 423d
00000100: 47de bf3b e850 c43c 2fdd 4abc 40bf 03bd
00000110: b7be 23bd 491f a03b 5a5b 1c3d 979c b33d
00000120: 6f53 55bd 2b8b 3b3d 01ae 573d 77df ec3b
00000130: 168f 863b 7374 a9bc b126 523c 60be 83bc
00000140: 3b03 983a bd7a cf3d bf4d e7bc e276 a93c
00000150: 207a e33c 6134 95bd 3a46 863c 2874 04bd
00000160: 30b2 88bd 6cd5 993d 62e6 7e3d acbe bebc
00000170: cb14 b1bc 1ca4 693c 3c70 e53d 046a fc3d
00000180: 6e3d 0dbd a74c d23c e654 fa3d b47b f83c
00000190: 41f9 c33b caf4 1c3d 22ec 8cbd 6ac4 843d
000001a0: 54f2 743d ff16 d13a 570d c83c 6401 cd3d
000001b0: 74f9 e93a 9c53 033e 2232 bd3d fc21 6abd
000001c0: dc59 d4bd 8c23 e43b d1f5 6e3d 388e 9fbd
000001d0: a880 22bd dcc2 58bc b1f1 fb3d 96f9 67bd
000001e0: 5279 7a3d f26b 623d 230d 5bbd 03c6 0fbd
000001f0: 18d1 89bd 37e8 b4bd d090 87bc a153 c43c

fc3.weight f4 [2, 128]
-0.06051833 0.046411317 0.031284895 -0.0030163527 0.085028045 -0.002251182 0.02371751 -0.06068707
-0.06301418 0.044779368 0.07160279 -0.08576913 -0.04280226 -0.07043501 -0.06945869 0.10234495
-0.074463986 -0.0123396795 -0.07350681 0.021489713 -0.026357248 0.044020694 0.1604956 0.07994898
0.03158718 0.0026281148 0.042856194 0.06960762 0.04429629 0.105455115 -0.06798143 -0.074701
-0.027239747 0.040354542 0.004286006 0.10627238 0.040946312 0.041477356 0.06026707 -0.036059946
0.080493055 0.12398646 -0.06632912 0.036576997 0.012702805 0.09724255 -0.017090335 -0.004220061
0.092017256 -0.018813469 -0.055731326 0.018010907 -0.06065736 0.018764691 0.06463514 0.12665468
0.005382754 -0.013202131 -0.061926324 0.07068536 0.053378303 -0.3208727 0.08486696 -0.05841336
-0.024585444 0.08470892 -0.03736271 0.021200921 0.05729177 -0.08045864 -0.16511634 0.103037946
-0.04240376 -0.0026549492 -0.055595614 -0.032282252 0.038959213 -0.056598913 0.062189825 0.020147447
-0.05686376 0.030343737 0.039455052 -0.07160496 -0.023247615 -0.059790567 0.013989956 0.0690835
0.033142492 0.12495318 0.010135543 -0.0019791126 -0.0066259247 0.07125558 0.13227762 0.023512335
0.10541983 -0.018262153 0.049891792 -0.07391619 0.09210653 0.11282398 0.026199192 0.06888578
0.01482981 0.120161 -0.0055185114 0.045596205 0.11807817 0.0059817736 0.03641454 -0.08292763
-0.010321165 -0.05762282 -0.021201406 0.031067325 0.07596331 0.037489805 0.077305846 -0.022134788
0.042522214 0.06705212 -0.035194937 0.020542238 0.032787457 0.058334287 -0.064167306 -0.02935734
0.026694598 0.057115294 0.06775281 -0.01698126 0.09359687 0.11680419 -0.07690921 0.06822818
0.01741752 -0.041137725 0.07785132 -0.06532026 -0.04990257 -0.057130195 0.06932847 0.042183824
-0.043114323 0.08581088 -0.07388533 -0.075706646 -0.039642397 -0.025617396 -0.08950716 0.06877585
0.1208633 0.071876295 0.018477239 0.038885497 0.11876546 -0.027819108 0.05877484 -0.03415865
-0.046093915 -0.036744457 -0.011599638 0.08646875 0.05784882 0.07565431 0.04376211 -0.06718615
0.043143105 -0.027036633 -0.018285198 0.040978387 -0.061722323 -0.02173076 0.055413045 -0.009340586
-0.031623226 -0.013043657 0.0006110491 -0.085910425 0.044344883 -0.023827339 0.06673921 0.029229427
0.016622402 -0.022664756 0.060029406 0.01761699 -0.072435476 -0.14826171 0.054211535 -0.020323412
0.1134307 0.030986197 -0.010406982 -0.063430205 -0.0044934866 0.043058824 0.014308947 0.035029266
-0.050899535 0.099534824 -0.054596357 -0.05069521 0.03534208 -0.049858816 0.07745339 0.0060240705
-0.04159306 0.12024104 -0.02731713 -0.07242142 -0.012064651 -0.045133024 0.10734247 0.086681426
0.004141152 0.09666552 -0.06903428 -0.07866706 0.058118336 0.00463261 0.060799886 0.090680875
-0.0051707267 1.6283619e-05 0.019617653 0.06668033 0.00094312546 0.13015723 -0.0066507286 0.021819217
0.029658971 0.022064503 0.12214379 0.110956095 0.1224155 0.0886536 0.06563825 -0.020301007
-0.07414099 0.054092824 -0.037987106 -0.07102002 0.09923698 -0.023314524 0.026243845 -0.042778797
-0.08324616 0.07979929 -0.017531734 -0.022531563 0.07434701 -0.04749148 0.020162817 0.06908231
00000000: 12e2 77bd cb19 3e3d 9724 003d 00ae 45bb
00000010: 2f23 ae3d 9188 13bb 394b c23c 0193 78bd
00000020: 940d 81bd 926a 373d 7ca4 923d baa7 afbd
00000030: 6c51 2fbd 3b40 90bd 5c40 8ebd 3b9a d13d
00000040: 9380 98bd 5e2c 4abc bd8a 96bd 320b b03c
00000050: 28eb d7bc 0b4f 343d f558 243e 4abc a33d
00000060: 8f61 013d 733c 2c3b fa89 2f3d 718e 8e3d
00000070: 0770 353d daf8 d73d d939 8bbd d6fc 98bd
00000080: e425 dfbc ce4a 253d a071 8c3b 55a5 d93d
00000090: 52b7 273d 29e4 293d 9ada 763d 98b3 13bd
000000a0: 8bd9 a43d 9dec fd3d 90d7 87bd c3d1 153d
000000b0: 6d1f 503c 1a27 c73d 0801 8cbc 7048 8abb
000000c0: 8b73 bc3d b41e 9abc 8846 64bd 9c8b 933c
000000d0: da73 78bd 69b8 993c 6e5f 843d c4b1 013e
000000e0: d061 b03b c04d 58bc 75a6 7dbd 7cc3 903d
000000f0: 35a3 5a3d 6d49 a4be bbce ad3d d942 6fbd
00000100: 6a67 c9bc df7b ad3d a409 19bd 8ead ad3c
00000110: c6aa 6a3d 80c7 a4bd 4214 29be 8f05 d33d
00000120: 91af 2dbd a8fe 2dbb 3ab8 63bd 653a 04bd
00000130: b293 1f3d 43d4 67bd c2ba 7e3d 420c a53c
00000140: f9e9 68bd 6e93 f83c 9f9b 213d 9fa5 92bd
00000150: c871 bebc f4e6 74bd 2136 653c a67b 8d3d
00000160: 6cc0 073d 74e7 ff3d 8c0f 263c 00b4 01bb
00000170: 491e d9bb 72ee 913d c973 073e f19c c03c
00000180: 5ae6 d73d 839a 95bc 565b 4c3d 5f61 97bd
00000190: 59a2 bc3d 4210 e73d b09f d63c fd13 8d3d
000001a0: bbf8 723c f816 f63d a1d4 b4bb 16c3 3a3d
000001b0: f8d2 f13d c102 c43b 6a27 153d f6d5 a9bd
000001c0: 1b1a 29bc e805 6cbd 92ae adbc e780 fe3c
000001d0: a792 9b3d e98e 193d 8752 9e3d 0454 b5bc
000001e0: c62b 2e3d 9f52 893d 9128 10bd 3248 a83c
000001f0: 244c 063d efef 6e3d 266a 83bd ce7e f0bc
00000200: a1ae da3c baf1 693d fcc1 8a3d 491c 8bbc
00000210: b7af bf3d 0937 ef3d 9382 9dbd 37bb 8b3d
00000220: 30af 8e3c 0880 28bd 8370 9f3d a1c6 85bd
00000230: a366 4cbd 5a01 6abd 16fc 8d3d f2c8 2c3d
00000240: a598 30bd 9dbd af3d 3151 97bd 160c 9bbd
00000250: 1160 22bd 93db d1bc 884f b7bd 5ada 8c3d
00000260: 2e87 f73d e133 933d 945d 973c 6646 1f3d
00000270: 4e3b f33d e6e4 e3bc e3bd 703d f1e9 0bbd
00000280: f9cc 3cbd 5b81 16bd 680c 3ebc 8716 b13d
00000290: e2f2 6c3d a6f0 9a3d e63f 333d e498 89bd
000002a0: d3b6 303d ee7b ddbc d7ca 95bc f4d8 273d
000002b0: 8cd0 7cbd b504 b2bc caf8 623d 4209 19bc
000002c0: 5b87 01bd 10b5 55bc d02e 203a cef1 afbd
000002d0: fba2 353d 8d31 c3bc 91ae 883d 8d72 ef3c
000002e0: b42b 883c 70ab b9bc 65e1 753d 8151 903c
000002f0: 0d59 94bd ebd1 17be ea0c 5e3d 497d a6bc
00000300: 5b4e e83d c4d6 fd3c 0c82 2abc b2e7 81bd
00000310: 193e 93bb 735e 303d 1370 6a3c d97a 0f3d
00000320: 087c 50bd ead8 cb3d 6ea0 5fbd c8a5 4fbd
00000330: dbc2 103d c238 4cbd e29f 9e3d 9165 c53b
00000340: 7c5d 2abd ef40 f63d 2cc8 dfbc ae51 94bd
00000350: d0aa 45bc 68dd 38bd 5ed6 db3d 0886 b13d
00000360: 80b2 873b 92f8 c53d d861 8dbd 321c a1bd
00000370: 7e0d 6e3d 26cd 973b 4d09 793d e5b6 b93d
00000380: 336f a9bb ce98 8837 33b5 a03c b28f 883d
00000390: 143c 773a f047 053e 5bee d9bb 37be b23c
000003a0: 5ff7 f23c 9ec0 b43c 8626 fa3d f33c e33d
000003b0: fab4 fa3d 0590 b53d 596d 863d 4c4e a6bc
000003c0: 3bd7 97bd 7090 5d3d 5e98 1bbd f272 91bd
000003d0: c23c cb3d 1afe bebc 55fd d63c d238 2fbd
000003e0: f67c aabd cf6d a33d b69e 8fbc 1d94 b8bc
000003f0: 3f43 983d 6d86 42bd 7e2c a53c 077b 8d3d

fc3.bias f4 [2]
0.055419877 0.06878763
00000000: f4ff 623d 87e0 8c3d
