weights/replay_buffer.pth (torch, 72669 bytes, 6 tensors)

fc1.weight f4 [128, 4]
00000000: f372 c2be 162a 753f 2def b13f cd57 493f
00000010: 6614 06bf f37b efbe 7c96 41bf fed7 86be
00000020: 2acc 57bf 88b5 ba3e 3709 4ec0 03c0 083d
00000030: 83ad 253f 71f3 b63d 0ed7 473e 17f3 e63d
00000040: 0d70 ecbe e71f 2ebe 96c0 96bf a4f0 30be
00000050: 474e 0b3f 31c1 40bf cc35 27bf 63a1 c3bc
00000060: a6f8 16bd d37a 793f 775c 3ebf b593 b73e
00000070: ba27 9a3e 7031 643c 3d19 6140 e05d 8f3e
00000080: e160 d93e feb6 1c3f ba76 34bf 301a 02bf
00000090: 5293 ae3e 46a3 7b3d a0f0 813e b66b e53c
000000a0: 7f48 5fbd 75f9 b43e 6869 5440 4264 2b3f
000000b0: 01e1 a43e 0421 6dbf a025 f9bf 0228 51bf
000000c0: 9eaa 14bf 4d09 df3e 9506 663f 58ba 4dbf
000000d0: fec7 97bf 45a2 2ebd 648e 71bf 753a fbbe
000000e0: 0b73 e4be df1e c3bd f6f7 0ec0 4b01 99be
000000f0: e60a 7ebf 5dda c8be d65a 4dbe d02d b73e
00000100: b259 06be 9d86 0d3e fff2 5f3f 1138 7c3e
00000110: b203 f63d bce4 96be 4732 5340 20a9 8b3e
00000120: f388 82bf 5d37 873f b32f 0440 d25e 6a3f
00000130: c39f 393f f6f0 783e 530e 0440 8fd1 8c3e
00000140: 6bd6 b93d 6501 143e 9010 6840 1c8b e73e
00000150: e42a 63bf 04e3 7dbe 056e 023f 51d7 67be
00000160: d79f 6c3e 3c0f 183f 74f2 4540 5c31 9cbe
00000170: d875 6f3d 3993 19be a2ea 52bf 8b08 33bf
00000180: ac16 55be b6fa 5d3d 215a 95be 929e 20bb
00000190: 9352 803e d88d 4cbe 9f84 8740 8dfe b53e
000001a0: d8ba 61bf 5931 25bf 6730 9d3f 9416 ee3d
000001b0: 40b4 133f ac51 f23d f88d 92bf c00b c1bc
000001c0: 3ec4 3c3d a34e 9abd 6505 76bf 05a1 f73d
000001d0: 82bf ee3e 8235 673d 4528 a73f 839c d2be
000001e0: 9088 58bd 2956 573f 03f5 8a3f 7e6e 583f
000001f0: ebd1 85bd 629a 513e 6921 3e40 cd00 603f
00000200: 3f85 b9be e1a6 c7bd 535b f9bf a2eb 083f
00000210: 93ce 623e c670 d9be a2eb b03f 8310 053f
00000220: 235a db3e 7732 d03c 2361 0540 1f52 933b
00000230: 0fcc fc3e a934 1b3f 1d13 1c40 7246 8d3f
00000240: c366 50bf c447 873f 98f9 e2bf c634 8d3f
00000250: 4e20 1dbe 846d 8bbd df44 3bc0 b7f6 e9be
00000260: 9018 b23c dec5 2bbe 997c 3fc0 912d 00bf
00000270: 8eae 21bf a09d c2be 7f36 babf 875a 12bf
00000280: 17a0 20be 09f3 543e 02fa 3dbf ff73 9a3e
00000290: 7999 093f d8ae e9be 1fdb efbe 140a bdbd
000002a0: 4f94 bb3e 7f5c 97bd a188 47c0 1b3b 333f
000002b0: 32b1 68bc 0112 c0bd f057 22c0 02f7 6abf
000002c0: 9c40 16c0 0e91 9dbc ac4b 59bf e5b2 a9be
000002d0: 58d6 9cbe 6068 e43d 7bcf 52c0 033a 9fbe
000002e0: 01e1 5dbe 1141 f43e 4340 ac3e 65a8 9f3f
000002f0: 980c ffbd caac ab3d 61ab 50c0 860a a1be
00000300: 0b2c 8c3e 9a86 1c3e 29bb 39c0 22eb 10be
00000310: 8721 4abe e61f 913e 194f bbbe 878f d03e
00000320: 37e2 6e3d bd6a 79bc 41be 903e 57cc 293f
00000330: 26dd 0d3c f591 893c a67c 3e3f 9772 debc
00000340: 39c8 943e ed68 0fbe afb2 f5bd 17ef ecbf
00000350: e1b7 bf3e 7799 d6be 032e bfbf e55b 0d3e
00000360: be7e 9ebe adbe 03bc b3f1 b63f 3d74 743f
00000370: 0612 dd3c 1b48 8c3e ef72 38c0 5071 033e
00000380: 645b 2f3e c684 74be d446 71bf 0b4b d93e
00000390: 97e5 353f 42c4 7c3e fbd2 7cbf c637 413d
000003a0: e05a 87bf 6a79 023f 52f5 8f3f 74b6 843e
000003b0: b6d2 613e 4ecf 03bf 360f 693f 8de7 e9bd
000003c0: 39c8 363f 8b01 04bf 0ed3 eb3f 0739 ab3e
000003d0: 05da 153e d7a8 87be 59c4 babf ea1c 173e
000003e0: 7998 f03e 3bc3 903f c555 1140 fe01 8c3f
000003f0: 0992 52bf 76cb 903e 2cc2 863f ec9d 623f
-0.37978324 0.95767343 1.3901116 0.786496 -0.52374876 -0.46774253 -0.75620246 -0.26336664
-0.84295905 0.36466622 -3.2193124 0.03338624 0.6471788 0.089331515 0.1951563 0.112768345
-0.46179238 -0.17004357 -1.1777523 -0.17279297 0.54416317 -0.75294787 -0.6531646 -0.023880666
-0.036858223 0.9745304 -0.7435984 0.3585488 0.30108434 0.013927802 3.5171654 0.28001308
0.42456725 0.61216724 -0.7049366 -0.5082121 0.3409677 0.061435007 0.25378895 0.028005462
-0.054512497 0.3534657 3.3189335 0.66949856 0.32202914 -0.926285 -1.9464607 -0.8170167
-0.5807284 0.43561783 0.89853793 -0.80362463 -1.1857908 -0.04263522 -0.94357896 -0.49068037
-0.4461902 -0.095273726 -2.2338843 -0.298838 -0.9923538 -0.39229098 -0.20054182 0.3577714
-0.13120154 0.13820882 0.8748016 0.24630763 0.120124236 -0.29471385 3.2999437 0.2727747
-1.0198044 1.056377 2.0654113 0.91550934 0.725094 0.2431067 2.0633743 0.2750363
0.090741 0.14453657 3.626011 0.4522332 -0.8873732 -0.24793631 0.50949126 -0.2264073
0.23107849 0.59398246 3.0929232 -0.30506408 0.058461994 -0.14997567 -0.8238927 -0.6993491
-0.2080943 0.054194175 -0.29170325 -0.0024508578 0.25063 -0.19975984 4.234939 0.3554577
-0.88175726 -0.64528424 1.2280396 0.116254 0.57696915 0.11831984 -1.1449575 -0.023565173
0.04608559 -0.0753453 -0.9610198 0.12091259 0.46630484 0.056447513 1.3059164 -0.41135034
-0.05286461 0.84115845 1.0856022 0.845436 -0.06534179 0.20469049 2.9707892 0.8750122
-0.3623447 -0.097486265 -1.9480995 0.5348455 0.22149114 -0.42468852 1.382191 0.5197832
0.42842206 0.025414689 2.0840538 0.0044958736 0.49374434 0.6062723 2.4386666 1.1037123
-0.814068 1.0568776 -1.773242 1.103173 -0.15344355 -0.06807998 -2.9260786 -0.4569604
0.021740228 -0.16774699 -2.9919798 -0.5006953 -0.63156974 -0.38010883 -1.4547881 -0.57169384
-0.1568607 0.20795836 -0.74209607 0.30166623 0.53749806 -0.45641208 -0.46846864 -0.09230438
0.36636588 -0.07390689 -3.1177142 0.7001206 -0.014202403 -0.09378434 -2.5366173 -0.91783154
-2.3476934 -0.019234207 -0.8488109 -0.33144298 -0.3063228 0.111527205 -3.2939136 -0.31098947
-0.21667863 0.47705892 0.33642778 1.2473265 -0.12453574 0.08382566 -3.2604601 -0.3145334
0.27377352 0.15285721 -2.9020483 -0.14152196 -0.19739352 0.2834465 -0.36583784 0.40734503
0.058321204 -0.015223202 0.28270152 0.6632742 0.008658683 0.01679323 0.7440895 -0.02715425
0.29059008 -0.1400487 -0.11996972 -1.8510464 0.37444976 -0.4191396 -1.4935917 0.13804586
-0.30956072 -0.008041066 1.4292511 0.95489866 0.026986133 0.27398762 -2.882015 0.12836194
0.17124707 -0.23878774 -0.942487 0.42440066 0.7105345 0.24684241 -0.9875943 0.04717233
-1.0574608 0.50966513 1.1246741 0.2592045 0.22053036 -0.51488197 0.91038835 -0.11421118
0.71399266 -0.51564854 1.8423784 0.33441946 0.14633949 -0.26496002 -1.459117 0.14757124
0.46991327 1.130958 2.27086 1.0938108 -0.8225408 0.28280228 1.0528007 0.8852222

fc1.bias f4 [128]
00000000: b7f2 ddbe 08a4 21bd 3c57 84bd 37a0 a6bf
00000010: 92fa 82bf 5c86 22bf 5772 f33c db66 23bf
00000020: 9e7b 8fbf 588c 76bf 8cca fdbe a403 12bf
00000030: 6c2b b1be 1742 62bd 2551 38bf d088 42bf
00000040: 6b43 013f 8b35 81bf fc09 c8be a650 f3bd
00000050: 5ce0 19bf b699 d2bf 628f 65bd 7116 f13e
00000060: 02ac 31bf ec61 79bf c3ee 30bf 03ed a73e
00000070: 69e7 f73e b374 3c3e 0444 aebe e7ec 4bbf
00000080: 30c3 4cbe facb b0bf 0b50 af3d 7231 02bf
00000090: f57d b9bd 2217 1dbf d733 2dbf 9e47 68bf
000000a0: 69cb 043f 6000 85bf 27f9 0ebe 710c 753f
000000b0: 5672 233c 39df 14bf ce1f 283e 1fcd 653f
000000c0: 7328 32bf d1fb 063d c765 42be 1b8d 0e3d
000000d0: 2f66 f83e 7caf 433e 5676 803f 1ec9 69bf
000000e0: d9ea a2be ec5b a0bf 050a c9bd 9c1c bc3d
000000f0: 9bc5 62bf 6e76 963e f6de 80bf cce1 463f
00000100: 447f 73bf 6ea3 153f 639a 52bd f2ae 02be
00000110: dfe7 64bd 4b05 15be aac2 dfbe 882b 573c
00000120: dfbf 54bf dbec 8abf af6e 5abf b2a1 b73e
00000130: 40f0 0fbf 0631 37bd d822 38bf 1dce 91bf
00000140: 16d2 123f cec1 6fbf ddb7 a93e 5493 70bd
00000150: e56f 6fbf 9e3f 86bd 2d67 2ebf 6360 8d3e
00000160: 2efd ca3d 3e7b 37bf 6f79 61bf 5bef d0bd
00000170: 404c 493e 1326 55bf e911 76bf face 9f3e
00000180: eed4 b3bd 890e 643c 3412 3bbf 29ce 3ebf
00000190: 4844 d8bf f6b6 123f d66f 0ebf 67ff 10be
000001a0: 1ef4 9bbe 193d 50bd 82fe 4f3e cc3b 0e3e
000001b0: e758 6dbe f74e 4b3f 5a9a dbbe b5de 053f
000001c0: 9420 d9be dab0 413c 5c04 aebf 9be7 6bbf
000001d0: 6443 b7bf afcc 8ebf 103f 37bf c2be 98bf
000001e0: c5c0 26bd d7cc 0bbf 3f54 dbbe 5e5b e1bd
000001f0: 0410 86bd c4ef 7cbf 827a 6b3e c1c1 1b3f
-0.4334924 -0.039463073 -0.06461951 -1.3017644 -1.0232718 -0.63486266 0.029717607 -0.6382882
-1.12096 -0.963079 -0.49568594 -0.57036805 -0.3460344 -0.05523881 -0.71998817 -0.7599001
0.50493497 -1.0094465 -0.39070117 -0.11880617 -0.6010797 -1.6453159 -0.056044944 0.47087434
-0.6940309 -0.9741504 -0.6911432 0.32798013 0.4841874 0.18403892 -0.34036267 -0.7965836
-0.19996333 -1.3812249 0.08560189 -0.508567 -0.090572275 -0.6136342 -0.67657226 -0.9073428
0.5187288 -1.039074 -0.13962232 0.9572211 0.00997599 -0.5815311 0.16418383 0.89766115
-0.6959297 0.032954995 -0.18984137 0.034802537 0.4851546 0.1910991 1.0036113 -0.91322505
-0.318198 -1.2528052 -0.09816364 0.09185144 -0.8858277 0.2938723 -1.0068042 0.7768829
-0.95116067 0.584525 -0.051416766 -0.12762049 -0.055885192 -0.145528 -0.43703204 0.013132937
-0.8310527 -1.0853533 -0.8532514 0.3586555 -0.5622597 -0.044724487 -0.7192817 -1.1391026
0.57351816 -0.936551 0.3314809 -0.058734253 -0.9353011 -0.06555103 -0.68126184 0.276126
0.099115714 -0.7167243 -0.8807592 -0.102019034 0.19657993 -0.8326122 -0.9612108 0.31212598
-0.087808475 0.013919481 -0.7307465 -0.74533325 -1.6895838 0.57310426 -0.556394 -0.14159928
-0.30459684 -0.050839517 0.20311931 0.13889998 -0.23178445 0.79417366 -0.42891198 0.5229295
-0.42407668 0.01182195 -1.359508 -0.92150277 -1.4317441 -1.1156214 -0.715806 -1.1933215
-0.040711183 -0.54609436 -0.42837712 -0.11003755 -0.065460235 -0.98803353 0.22995952 0.6084252

fc2.weight f4 [128, 128]
00000000: 3854 dc3e 7da8 043d 84cc 983d 3e37 e7bf
00000010: c071 e3be 17fb ef3d 9ac3 003e a2ec ccbe
00000020: 78f9 75be c140 afbf a559 a3be b192 4f3e
00000030: 35f0 3f3f 1ead 3bbe ec85 b43d 8b24 083f
00000040: 1389 cb3e 794f 863e 748f 73be 898e 223f
00000050: a963 6cbe ceb0 88c0 64d9 9d3e e2e2 243e
00000060: e8cd 5bbd 79f5 a9be 157b cc3e 3dd6 853e
00000070: b366 9a3e b594 2b3d 660b 13bf 5001 42bf
00000080: 7ac9 b73d 05e5 1bc0 1152 073f a1ae 0b3d
00000090: 494d 1d3d 0a8d f2c0 1cf5 83c0 987c cdbf
000000a0: b9dd dd3e 9ae6 1f3e 0f69 15bd bca9 083f
000000b0: 83c5 fd3d 6688 6fbf 8e7c 0e3f b546 d43e
000000c0: 2fb9 e4c0 0175 5e3e 2eb5 ab3e 52e5 d33d
000000d0: f8ef 82bc 4060 5cbd 9230 2f3f 0ef7 91c0
000000e0: e474 c23e fb14 6dbf 9ea6 8cbe 164f 7b3e
000000f0: 9dd1 6bbf cc5a 993e 6c64 53bf 2470 4f3e
00000100: 67fe 6f3f 3953 b73e 07da 773e 3e73 433f
00000110: 9da4 80be 276b 1fbe 24db 06bf 4607 0a3e
00000120: 2c1b 8ac0 4bda dcbf f9e5 833e 39af 9cbd
00000130: 5564 4dbe e48b 303f 93bc 63bf f624 b7bf
00000140: 4789 5c3e c7a6 5fbf 1427 923e 41e3 ae3e
00000150: 8815 d0be 9838 cdbc 6138 25bf 2b7b f8bd
00000160: 7e2b 1f3e ab0a 7bbc 907f 2cc0 ac6a f4bc
00000170: 6edd 0b3e 2b1d fdbe da05 123f 0472 cb3e
00000180: 28ac 3dbf ec5c 47bc 1996 52be fff5 fdbf
00000190: d4e1 96be 4499 ca3e 0e5b ccbe 2d37 6e3e
000001a0: c6d8 19be bf68 3cbe 2789 a43e 6e73 893e
000001b0: d0e8 9e3e 03ca 9d3e 0ce9 a8be bd1e 59be
000001c0: 9812 073e 6ef2 14be e010 f0bf 2ee7 eabe
000001d0: f6ff debe 2dde 92c0 65e6 843f d831 523e
000001e0: ffed 6fbb b91e ebbd c00d bf3d 717e 1cbe
000001f0: 1dd0 94bc a54d 65bf 4309 773e d7fd 883e
00000200: 8a45 6a3f 5264 b53e d087 88bf aeeb 15be
00000210: 1fbd 7a3d 9c26 2a3e 829a 2e40 72c4 f63f
00000220: 4457 55be ff64 dfbd b473 0040 544b 1940
00000230: 3d0a f5c0 38bf 3fc0 bb2b 25bc f200 943e
00000240: a8fb c23d d6a7 553e 5e26 e13f 8a94 ee3e
00000250: 0555 b13f b222 b63e 6d01 c53f 944d cac0
00000260: 78ba 91bd cbfe 193f 9bf1 313f bf02 b5be
00000270: 326c b3be 9d59 be3f 5fe7 873e 073a 9f3f
00000280: 3e26 7abe 194a b6be 35fc c93e d7fb 2b3f
00000290: 0c9c b2be 341a 94be b81b c3bc 7ec5 ebbe
000002a0: b382 0cbf 9113 c63f 426e a43e 3136 40c1
000002b0: 6792 5ebf f1be 15be 8935 6c3e 51ca 50c1
000002c0: 65f0 a2bc 01dc 02bf cb67 cf3b 8007 2b3d
000002d0: 57ef 27c1 0333 17be 62af ee3d b419 813d
000002e0: 8681 39be bbeb f83b 8e0b 13bf cc46 8b3d
000002f0: da45 1a3d b278 76be 8889 ea40 328e 82bb
00000300: 5a2a 273f 4656 86be 87b4 413e c0a4 be3f
00000310: c0c8 0bc0 64f4 ddbf 586b aebf 9be2 dac0
00000320: 287f bfbe 8a4c 0dbe c96f 3ec0 c4c6 8dbe
00000330: 1722 453f 8b7e b8bd 40f5 afbe c785 3abe
00000340: 2a78 213e c9c2 2d3e 0659 0a3f e13c 6540
00000350: 414b 703f b1d5 0f3d b827 dbbd 1412 963d
00000360: d90a c4be 568d bebe 3aee a3be f604 3740
00000370: bb6f c2be 3d76 353f 7535 4e3f d3e4 26be
00000380: 6fdf cbbd 1e64 0c3d 7ac2 d3c0 aa6e cfbd
00000390: 54d9 27c1 03f8 c53e 4c07 9840 6911 0540
000003a0: 6631 413f df44 cdbd a781 c8be 8bff 9f3e
000003b0: 7ce1 c2bd c416 53c1 8a0f 1dbf 9aea c6c0
000003c0: 2d02 e3bd 7e64 1b40 86f3 abc0 0169 34be
000003d0: 46bb 97c0 5e4b 35be 6807 95be 2297 343d
000003e0: c131 023f 7815 fa3b 6043 dc3d 0252 85bf
000003f0: e487 913d c900 58bc c99a 3fbe 412c dabf
0.43033004 0.032387245 0.07460883 -1.8063734 -0.44422722 0.117178135 0.12574616 -0.40024287
-0.24020946 -1.3691636 -0.3190433 0.20270802 0.749759 -0.18327758 0.08814606 0.5318076
0.39753017 0.26232508 -0.23785192 0.6349874 -0.23084892 -4.2715826 0.30829918 0.16102174
-0.053663164 -0.33195093 0.39937654 0.26140013 0.30156478 0.041889865 -0.5743927 -0.7578325
0.089739755 -2.4358532 0.528596 0.034102086 0.038403783 -7.5797167 -4.1236706 -1.6053648
0.43333223 0.15615311 -0.036477145 0.53383994 0.12391188 -0.935675 0.55658805 0.41460195
-7.1476054 0.21724321 0.33536667 0.10346474 -0.015983567 -0.05380273 0.6843349 -4.561408
0.37979805 -0.9261014 -0.2747087 0.24541888 -0.9211672 0.29952085 -0.82575107 0.20257622
0.9374756 0.3580568 0.24204265 0.7634772 -0.2512559 -0.15568219 -0.5267813 0.13479337
-4.315817 -1.7254118 0.25761393 -0.076506086 -0.20057805 0.68963456 -0.88959616 -1.4308155
0.21536742 -0.8736386 0.2854544 0.34157756 -0.40641427 -0.0250514 -0.6453915 -0.121328674
0.15543935 -0.015322368 -2.6952858 -0.029836021 0.13658687 -0.49436316 0.5704018 0.39735425
-0.74090815 -0.01216815 -0.2056507 -1.9840697 -0.29469168 0.39570057 -0.3991322 0.23263235
-0.15024099 -0.18399332 0.3213589 0.26845878 0.31036997 0.30818185 -0.329903 -0.21203132
0.13190687 -0.14545605 -1.875515 -0.458795 -0.43554658 -4.589621 1.0382811 0.20526826
-0.0036610363 -0.11480469 0.093287945 -0.15282609 -0.018165642 -0.895716 0.24124627 0.26756164
0.9151236 0.354281 -1.0666447 -0.14640686 0.061215516 0.16616291 2.7281804 1.92787
-0.2083407 -0.10907935 2.007062 2.3952227 -7.6575 -2.996046 -0.010081227 0.2890697
0.09520656 0.20864806 1.7589834 0.465977 1.3854071 0.35573345 1.539106 -6.32197
-0.07115644 0.6015441 0.69509286 -0.35353658 -0.35043484 1.4871098 0.2654371 1.2439584
-0.2442865 -0.35603407 0.3945023 0.6718115 -0.3488468 -0.2892624 -0.023816928 -0.46049112
-0.5488693 1.5474721 0.3211537 -12.01323 -0.8694214 -0.1462362 0.23067297 -13.049394
-0.01989002 -0.5111695 0.0063295118 0.0417552 -10.495933 -0.14765553 0.11654545 0.063037306
-0.18115816 0.0075964606 -0.57439506 0.06800613 0.037664272 -0.24069479 7.3292885 -0.003984236
0.65299 -0.26237696 0.18916522 1.4894028 -2.1841278 -1.7340207 -1.3626509 -6.840162
-0.374017 -0.13798729 -2.9755728 -0.2769071 0.7700514 -0.09008511 -0.34366798 -0.18215095
0.15768495 0.16968836 0.5404209 3.5818408 0.9386483 0.0351159 -0.10700935 0.07327667
-0.38289526 -0.37217206 -0.3201769 2.8596778 -0.3797587 0.7088354 0.8055032 -0.16298227
-0.09954726 0.034275167 -6.61749 -0.10128529 -10.490559 0.3866578 4.7508907 2.0791876
0.75466 -0.10022902 -0.39161417 0.3124965 -0.09515664 -13.193058 -0.61351836 -6.216138
-0.11084399 2.4280086 -5.373477 -0.17618181 -4.7416105 -0.17704532 -0.29107213 0.044089444
0.5085717 0.007631954 0.10755038 -1.0415652 0.07105997 -0.013183781 -0.1871139 -1.7044755

fc2.bias f4 [128]
00000000: f5f8 5b3f 695e 73be dbcc d7bc a3f7 793c
00000010: fbc3 5c3f 63be 1ebe 8f23 aebd 1789 0fbe
00000020: cecb b5bd 1c84 453c 56c0 a1bd dd40 21bd
00000030: ba1f 753f 6bf5 26bd 0571 283d b2f6 033d
00000040: a5f7 833e cee0 323d 7c1a ef3e f9d6 563f
00000050: 84ca 723f 2d68 703f afc8 ffbd be32 24bd
00000060: ccf7 223f e405 bcbd 3d3d 8fbc c442 c1bc
00000070: e3b5 7d3f e7a6 313f bf4a bebd 980b 603f
00000080: 8121 7f3f 46a3 a6be 10e6 f2bc 4353 403f
00000090: 6cec bd3c 36ac babd 1fbc 55bc f42c a8bd
000000a0: 9d84 0abe bbe9 73be 5451 4abd 29cb 393b
000000b0: bd42 573f c81a 4e3f 2917 ca3c 9c9a a2bd
000000c0: f1dc 433f 35b2 463c 510f b838 8b9f 6b3f
000000d0: cc37 42bc 6cc9 543f 283f 883f 97b7 bd3c
000000e0: 9d30 6cbd 5665 2abd b1bb 8a3e 76ba dabd
000000f0: efdf a4bd 6a35 203f 414d d1bc 0b5c 363f
00000100: 61ee cebd 665e babd e234 babc c7fe b9bd
00000110: e4e9 573c ad35 223b 65b9 efbd fdff 1bbe
00000120: b831 5d3f c2bf 993c 2bb0 9cbb b073 6ebd
00000130: c4a4 143f 9c84 dc3e 4ce1 1abe bac4 0d3f
00000140: 6af0 febc 875d f33e d549 3b3f 094d 7fbe
00000150: b2bf dcbc ab86 87bd 051e fbbd 0f68 f33e
00000160: 05a7 b9bd 55de 84bc 9fb0 113f 853e 4f3e
00000170: 55b7 1abc e343 cbbd 7956 81bd 5d99 1abd
00000180: e5b9 803f 8202 a83c bc70 e73c 995b a63e
00000190: 8a86 c33c add6 cabd c58d fcbc 4f7f 5cbd
000001a0: 402e 333e 4adb 273f 3df8 853f d63d 5fbc
000001b0: 922f 49bd 1dcc aebd 6efc 1c3f 84e5 463f
000001c0: 25d7 313d 3116 533f aabe 02be a3b4 333f
000001d0: 6353 883f 3247 59bd 8a6b 413f 86ec 61be
000001e0: 8dc0 9d3b 6aa7 d13c 10a8 9ebd 296e 94bc
000001f0: 6745 303f cf75 5cbd 44a4 04be f7e2 743d
0.85926753 -0.23766483 -0.0263428 0.015256795 0.8623654 -0.15502314 -0.08502876 -0.1401714
-0.08876763 0.012055423 -0.07898013 -0.0393685 0.95751536 -0.040761393 0.04112341 0.03221769
0.25774875 0.04367142 0.46699893 0.8392177 0.94840264 0.9390896 -0.12489449 -0.040087454
0.6365936 -0.09180811 -0.017485255 -0.023591407 0.9910566 0.693953 -0.092916004 0.8751769
0.996605 -0.32546443 -0.029650718 0.7512705 0.023184024 -0.09114878 -0.01304534 -0.08211699
-0.1352715 -0.2381963 -0.049393967 0.0028349853 0.8408621 0.80509615 0.024669247 -0.07939646
0.76509005 0.012127449 8.7766566e-05 0.9204032 -0.011854123 0.83119845 1.0644274 0.023158832
-0.05766355 -0.041600548 0.27096322 -0.10680096 -0.080505244 0.62581503 -0.025549533 0.71234196
-0.10104061 -0.09100036 -0.022730295 -0.09081798 0.013178322 0.0024751232 -0.11705283 -0.1523437
0.8640399 0.018768195 -0.004781743 -0.058215797 0.5806391 0.43069923 -0.15125006 0.55378306
-0.031120498 0.47532293 0.73159534 -0.2493173 -0.026946876 -0.06617483 -0.12261585 0.47540328
-0.090650596 -0.016219297 0.5691013 0.20238693 -0.009443124 -0.09925058 -0.063153215 -0.037743915
1.005673 0.020509008 0.028251998 0.32491758 0.023867864 -0.099042274 -0.03082932 -0.05383235
0.17498112 0.65568984 1.0466381 -0.013625583 -0.049117632 -0.08535025 0.6132268 0.77693963
0.04341807 0.82455736 -0.12768045 0.70197505 1.0650448 -0.053046413 0.75554717 -0.22062883
0.0048142136 0.025592525 -0.07746899 -0.018118935 0.688559 -0.05382329 -0.12953287 0.059786763

fc3.weight f4 [2, 128]
00000000: ee76 3c3f f6b5 c840 6eec 25bb e194 06bd
00000010: b54f b53e d8f5 61bc d4bf 0abc 7a3e 69bd
00000020: f656 573d 68b3 e4bc 7aca 83bd 20f6 be3c
00000030: f309 513f 66ca 91bc 5e05 81bd 74f3 f33c
00000040: 238f 26be a881 753c bed4 ba3f e2a1 e43d
00000050: cee4 db3e f2c0 013e 84dd 0a3c e562 9a3d
00000060: c1e6 643f 5250 12bb d412 2a3c 6e6b 0c3d
00000070: aa96 a23f bd2e ae3f ea0e c83d 4d5e 323f
00000080: ed65 ad3e 4468 a4c0 5eed debc a822 71bd
00000090: ecfc 0dbc 308a 87bb aa16 963d 6008 e23c
000000a0: 1ef8 ffbc 484e 1f40 f61f 51bb b48d 663c
000000b0: bb80 a03e e83e 323f 9539 a939 18a3 4f3c
000000c0: ea04 7c3e aae2 4fbc ae1d b9bc 9a92 973f
000000d0: 101e 34bd 7863 c03e 6ff8 dc3e 803e c13b
000000e0: 4ad5 1bbd 70f5 8c3c e9dc c73f 2c5e 0cc1
000000f0: 8de0 1fbc bfb6 9dbe da8f 06bd dd55 353f
00000100: 6f12 4abc 6233 49bd f263 e93b 9d93 d7ba
00000110: 8192 a1bd c2f5 fdbb a68a 3b3c 9f99 093f
00000120: 17c9 be3e 8d39 c03c 4073 09bd 40c7 05bc
00000130: 6594 af3f e7d1 b33f 7041 fcbb 1317 6c3f
00000140: a376 89bb 5f27 8cbe ec44 863f e9e3 e33d
00000150: f891 cebc 4c58 ac3c 2227 53bd 7f84 a13f
00000160: 1e9f a7bc b34c 88bc dabd 0d3f 5074 c2bf
00000170: 8d2d 4bbb ebf2 f9bc 7d39 1fbd ea16 baba
00000180: a29c 033f 06e5 69bc 0923 823d 6522 013f
00000190: 6824 b43b e290 203b bc28 d53c 7b1a 84bc
000001a0: 586d 87bf e33f b8be 33bd a73e 0c36 0cbd
000001b0: 3743 46bc 09ad 37bd 4440 053e ba3c 1cbd
000001c0: aa65 59bd c4a2 6b3e ee59 fabb 1201 373f
000001d0: 59b3 c53e 6daf b9bd 7b79 4b3f c85c b2c0
000001e0: 2209 b0c0 4817 9bbc 8fdd 56bd 319e 6abd
000001f0: 621a ad3f 93a4 813c 3a9a fcbc 5e92 41c1
00000200: c6ed b83e 21d2 d9c0 d301 d83a a707 2f3a
00000210: a477 ab3e 6ecd d23d 8d20 3abd 3f27 a5bd
00000220: d778 3abc cbbd 4fbc 89a3 e5bb e8b4 7fbc
00000230: c253 e03e 6989 98bc 7b92 b9bb 7d45 903c
00000240: 52c2 823f c1cb 61bd 715d a6be 72f9 cb3e
00000250: 87c9 943e 9e00 593f b5f9 8f3c 2f52 3abd
00000260: 6720 b03c 357f 0ebd 48c4 36bc 8cc2 66bd
00000270: 2d15 083f 949d 473f 05f2 b03b 3b5b ca3d
00000280: beed bf3f f09e 3ac0 9fd7 36bd 327b f53f
00000290: ed8b 21bd 44c4 d1bc 3d1c 6fbd ea03 0bbc
000002a0: 44bf 093d accc 2840 2567 233c cc61 06bd
000002b0: a0a9 c93e 1ec1 ab3e b51c bdbc 8e0a 883d
000002c0: db92 153f c372 113c d523 af3c 45a6 743f
000002d0: 8fc4 763d 3abd 843e 3f61 973f c0f4 1d3d
000002e0: 8a9d d9bc 8816 8b3b ac05 1abf cb1f 52bf
000002f0: bee8 823c b833 993f f210 823d dd6d 843f
00000300: e33f 57bc b39c abbc d7c4 29bd f516 e8bc
00000310: 008f 80bc e7d6 81bc 55c2 84bd 93bd a8c0
00000320: 5c47 be3e 5962 5ebd 1408 9dbc a5be 70bc
00000330: ca8e 55bf 6ee6 423f 26b4 6abd 5eb3 27bf
00000340: 2e50 22bc 2137 303f 2704 b5bb 38d7 b3c0
00000350: 2a49 eabc 4807 a4bd 6fa3 9a3c 649b a43f
00000360: 171a a4bc c3ed b839 5cd1 7f3e 153d 683f
00000370: 47f9 a53c d028 053d ee83 743d e9e5 91bc
00000380: 7415 223f 8fc0 53bd ab9f e23c 829e a03f
00000390: 0eb9 d43b 03be 39bc b6b2 1c3c 3138 b0bb
000003a0: dfff 8a3f a540 fc3e aee1 933f 997a 273d
000003b0: 6e87 3bbb b4d2 143d 09e2 d63e c53c 1f3f
000003c0: ae39 1d3d 5435 483f a6d3 353d 3240 51be
000003d0: 6ec0 513f 44a2 96bb fe32 df3d 8088 c1be
000003e0: cd3d 6640 c203 97bc dd38 32bc 479c 173d
000003f0: 6a99 03bf 0733 e9bc f513 a93c ba7c e6bf
0.7361897 6.272212 -0.0025317925 -0.032856826 0.35412374 -0.013791524 -0.008468587 -0.056944348
0.052573167 -0.027917579 -0.06435104 0.02331072 0.81655806 -0.017796706 -0.06299852 0.029779173
-0.1626554 0.014984526 1.4596174 0.11163689 0.42948002 0.12671259 0.008475665 0.07538394
0.894146 -0.0022325707 0.010380466 0.03428214 1.2702229 1.3608013 0.0976847 0.6967514
0.33866826 -5.1377277 -0.027212795 -0.05887094 -0.008666258 -0.0041363463 0.073285416 0.027591884
-0.031246241 2.489153 -0.003190992 0.014071871 0.31348214 0.6962724 0.00032277094 0.012673162
0.2461125 -0.012688318 -0.02259716 1.1841614 -0.043973982 0.3757589 0.4315829 0.005897343
-0.038045205 0.017206877 1.5614291 -8.772991 -0.009758127 -0.30803487 -0.03285203 0.7083414
-0.0123334965 -0.049121268 0.00712251 -0.001644719 -0.078892715 -0.007750244 0.011446631 0.5375003
0.37262794 0.023464942 -0.033557177 -0.008165181 1.3717161 1.4048432 -0.0076982304 0.9222271
-0.004195051 -0.27373788 1.0489783 0.11127455 -0.025216088 0.021038197 -0.05155099 1.261856
-0.020461615 -0.016638136 0.55367815 -1.5191746 -0.0031002492 -0.03051134 -0.038873184 -0.0014197503
0.5141088 -0.014275795 0.06354339 0.50443107 0.005497504 0.002450042 0.0260204 -0.016125908
-1.0580244 -0.35986242 0.32761535 -0.03423123 -0.012100986 -0.044842754 0.13012797 -0.03814385
-0.05307547 0.23011309 -0.007640115 0.7148601 0.38613394 -0.09066663 0.7948224 -5.573826
-5.501115 -0.018932 -0.05245739 -0.05727977 1.3523676 0.015825545 -0.03083526 -12.098234
0.36118907 -6.8069005 0.0016480036 0.00066768605 0.33489716 0.10293089 -0.0454412 -0.08064126
-0.0113813495 -0.0126795275 -0.0070080203 -0.015607096 0.43813902 -0.01862021 -0.005663214 0.01761126
1.0215552 -0.055125955 -0.32493165 0.3983875 0.29060003 0.84766567 0.017575124 -0.045488533
0.021499826 -0.034789283 -0.0111551955 -0.056337878 0.5315731 0.7797482 0.0053999447 0.09880682
1.4994428 -2.9159508 -0.044639226 1.9178221 -0.039440084 -0.025606282 -0.05837654 -0.00848482
0.03362967 2.6374922 0.009973322 -0.03280811 0.39387226 0.33545774 -0.023084978 0.06642638
0.5842721 0.008877459 0.02137939 0.9556621 0.060246047 0.25925618 1.1826552 0.03856349
-0.026564378 0.0042446293 -0.60164905 -0.8207976 0.01598012 1.1968908 0.06350888 1.0346028
-0.01313779 -0.020948743 -0.041447487 -0.02833126 -0.015693188 -0.015849544 -0.064823784 -5.2731414
0.37163818 -0.05429301 -0.019168891 -0.014693891 -0.83421004 0.7613286 -0.05730071 -0.6550807
-0.009906812 0.6883412 -0.0055241766 -5.620022 -0.02859934 -0.08009201 0.01887676 1.2859921
-0.020031972 0.0003527236 0.24982208 0.90718204 0.020260466 0.032509625 0.05969613 -0.017809825
0.63313985 -0.05169731 0.027664026 1.2548373 0.006491787 -0.011336806 0.009564092 -0.0053777923
1.0859336 0.4926807 1.1553247 0.040888403 -0.0028614658 0.036333755 0.41969326 0.622021
0.038385086 0.7820637 0.044391297 -0.20434645 0.8193425 -0.0045969803 0.10898398 -0.37799454
3.597522 -0.018434409 -0.010877815 0.037014272 -0.51405966 -0.028466715 0.020639399 -1.8006814

fc3.bias f4 [2]
00000000: f1f5 383f 632a 0f3f
0.72250277 0.5592405
