weights/some name.pth (torch, 72220 bytes, 6 tensors)

fc1.weight f4 [128, 4]
0	0x3ebfb206	0.3744051
1	0x3b953b1f	0.004554167
2	0xbedc86d8	-0.43071628
3	0x3e588d3b	0.21147625
4	0x3eb3f0c9	0.35144642
5	0x3ed001d8	0.40626407
6	0xbf64735e	-0.89238536
7	0x3f0ef283	0.55838794
8	0x3e8cf7ef	0.27532908
9	0x3ee1c71c	0.4409722
10	0xbff1c194	-1.88872
11	0x3f009ce4	0.50239396
12	0x3e67be36	0.22631153
13	0xbddeefdf	-0.108855955
14	0x3e891881	0.26776507
15	0x3e2a3442	0.16621497
16	0xbd24653c	-0.040135607
17	0x3c30ce76	0.010791412
18	0xbf3ef883	-0.7459795
19	0xbdab78ae	-0.08372627
20	0x3ea96ee7	0.33092424
21	0xbed60fea	-0.41809016
22	0xbe0f79d3	-0.14011316
23	0xbe9265ed	-0.28593388
24	0xbee5ebb3	-0.44906387
25	0xbead2435	-0.33816686
26	0xc011a604	-2.2757578
27	0xbec6df20	-0.38842106
28	0xbeb3a49d	-0.35086527
29	0xbd96935d	-0.07352326
30	0xbf0e006b	-0.5546939
31	0xbec3391b	-0.38129506
32	0xbc858c53	-0.016302263
33	0x3db0e0a0	0.08636594
34	0x4016a31e	2.353706
35	0x3e06991d	0.13144346
36	0xbd284ffe	-0.04109191
37	0xbd3467f7	-0.04404446
38	0xc02117f3	-2.5170867
39	0x3c70c15d	0.014694539
40	0x3d94c2ce	0.072637185
41	0xbe1f245f	-0.15541218
42	0xbe5f3501	-0.21797563
43	0xbe8408ea	-0.2578805
44	0x3ee0b314	0.43886626
45	0x3e8074fc	0.25089252
46	0x3fa136b5	1.259482
47	0x3e640cab	0.22270457
48	0x3e4f1b22	0.20225194
49	0xbdb27e43	-0.08715489
50	0xbec179d8	-0.37788272
51	0xbe9fae76	-0.3118779
52	0xbdb9faad	-0.09081016
53	0xbd29dc2b	-0.041469734
54	0xbd67409f	-0.05645811
55	0xbd8fe1dc	-0.07025501
56	0xbd98a7ba	-0.07453866
57	0x3e259800	0.16171265
58	0xbdcfbd57	-0.101435356
59	0x3e49d443	0.19709878
60	0x3e42f5e8	0.19039118
61	0x3ec84f25	0.39122882
62	0x3fe8c9e6	1.8186615
63	0x3f31bd92	0.69429886
64	0x3eb305d0	0.34965372
65	0xbd6d9006	-0.05799868
66	0xbef10197	-0.47071525
67	0x3daf8d08	0.085718215
68	0x3deec33c	0.11658332
69	0xbd99cd9d	-0.07509921
70	0xbfc3e56a	-1.5304387
71	0xbe234b17	-0.15946613
72	0x3e033d78	0.12816417
73	0xbd99a1b7	-0.07501548
74	0xbfce809d	-1.6133
75	0xbd11bcde	-0.03558051
76	0x3f3a9201	0.72879034
77	0xbe57f848	-0.21090806
78	0xc0088267	-2.1329591
79	0xbf187364	-0.5955107
80	0x3d44edc3	0.04807831
81	0xbe5cc7e5	-0.21560629
82	0xbe4e0315	-0.20118363
83	0xbeafae86	-0.34312838
84	0x3eb5890d	0.35456124
85	0xbdf5f107	-0.12008863
86	0xbf133884	-0.5750811
87	0xbe20f2eb	-0.15717666
88	0xbd80afae	-0.06283508
89	0xbe951208	-0.2911532
90	0x3f21b898	0.6317229
91	0x3f29d92b	0.66347
92	0xbeac1816	-0.33612126
93	0x3e12b161	0.14325477
94	0x3faff125	1.3745466
95	0x3e876a9f	0.26448533
96	0x3ef410fe	0.47669214
97	0x3dcc9f09	0.09991271
98	0xbebfbc2c	-0.3744825
99	0x3e89c96b	0.26911482
100	0x3d285e9c	0.04110585
101	0xbcb09f1b	-0.021560242
102	0xbd68afb4	-0.05680819
103	0xbd18ee44	-0.037336603
104	0xbd2800ec	-0.041016504
105	0x3e9bab52	0.30404145
106	0x3fe3bf3a	1.7792733
107	0x3f0c4d5d	0.54805547
108	0xbd059964	-0.032616988
109	0x3eab5ff6	0.3347165
110	0x3e84323c	0.25819576
111	0x3ed6955d	0.4191083
112	0x3de3aabc	0.111165494
113	0xbea10517	-0.31449196
114	0xbe19d773	-0.15023594
115	0xbe7acebd	-0.24492927
116	0xbee46de8	-0.44615102
117	0x3dd15502	0.10221292
118	0x3f3a45c7	0.7276272
119	0x3eba697b	0.364086
120	0xbe95b7ff	-0.2924194
121	0xbe6e9827	-0.23300229
122	0xbf37cbf2	-0.7179557
123	0x3d8db23d	0.06918762
124	0x3d85901b	0.065216266
125	0xbcac2482	-0.021013502
126	0xbfffb442	-1.9976885
127	0xbda31e1b	-0.079647265
128	0x3d785372	0.060626455
129	0xbe26928e	-0.16266844
130	0xc0497ac8	-3.148119
131	0xbf0aea0f	-0.54263395
132	0xbd072865	-0.032997508
133	0x3ec64351	0.38723233
134	0xbc8ba8cd	-0.017048264
135	0x3f6d6b30	0.9274168
136	0x3c16f3ba	0.009213382
137	0x3e43f713	0.1913722
138	0xbec90751	-0.39263394
139	0xbdb1fa1a	-0.08690281
140	0xbccb771e	-0.024837073
141	0x3dd45774	0.10368243
142	0xbf90c708	-1.131074
143	0x3df25ea5	0.11834458
144	0xbd7acc42	-0.06122995
145	0x3d02fe20	0.031980634
146	0x4049240f	3.1428258
147	0x3e71c684	0.23610884
148	0x3e43be9c	0.1911568
149	0xbc8aa13a	-0.016922582
150	0xbfa1c983	-1.2639621
151	0xbd6a9254	-0.057268456
152	0xbe707aeb	-0.2348439
153	0x3e5bd7cf	0.21469043
154	0xbef871b1	-0.4852424
155	0x3d179668	0.037008673
156	0x3edcb050	0.43103266
157	0x3eb002bd	0.3437709
158	0x3f84dd5e	1.0380056
159	0x3f142cbf	0.5788078
160	0xbd88eed2	-0.06686176
161	0xbc3009c4	-0.010744516
162	0x403eb6d0	2.979908
163	0x3e1fae3e	0.15593812
164	0x3e971d53	0.2951456
165	0x3d0ed64d	0.034872342
166	0x3e8968e7	0.26837847
167	0x3eb15414	0.3463446
168	0x3edfd581	0.43717578
169	0x3e7bb2ce	0.24579927
170	0x4018d1f4	2.3878145
171	0x3ecb6e06	0.3973238
172	0xbd46abdb	-0.048503738
173	0xbd77c963	-0.06049479
174	0xc0402a41	-3.002579
175	0xbe012ef4	-0.12615567
176	0xbcc88010	-0.024475127
177	0x3dec3ecd	0.11535416
178	0x3f6ee721	0.93321425
179	0x3e82c670	0.2554202
180	0x3cd6e6d7	0.02623312
181	0xbc14749e	-0.009061007
182	0x402c5f9f	2.6933362
183	0x3eceff28	0.40429044
184	0x3d9ad119	0.075594135
185	0xbd3b0fac	-0.045669243
186	0xbfb882a3	-1.4414867
187	0xbd8d0f25	-0.06887654
188	0x3ebf6e5e	0.3738889
189	0x3ddda4e9	0.1082247
190	0x3e9d24bc	0.3069209
191	0x3ed85548	0.42252564
192	0x3d418483	0.047245514
193	0x3d25ddc9	0.040494714
194	0x3dc9b2b2	0.098485366
195	0xbd705fbc	-0.05868505
196	0xbc627781	-0.013822437
197	0xbd46d15e	-0.04853951
198	0xbf0e7754	-0.5565083
199	0xbe9052ea	-0.28188258
200	0x3cdbb710	0.02682069
201	0x3e02e89e	0.12784049
202	0x3f878060	1.0586052
203	0xbcde58ab	-0.02714189
204	0xbf196039	-0.5991245
205	0xbe95a413	-0.2922674
206	0x3fa69573	1.3014358
207	0x3d96d7c3	0.07365372
208	0xbde8c2ef	-0.11365306
209	0x3e86052a	0.26175815
210	0x3f960936	1.1721561
211	0x3e90ef40	0.28307533
212	0x3ebe460a	0.3716281
213	0x3e81571e	0.25261778
214	0x401ed915	2.4819996
215	0x3eae77f5	0.34075895
216	0x3f1c6ee1	0.6110669
217	0xbe84f5eb	-0.2596887
218	0xbfe4c247	-1.7871789
219	0xbe9e769f	-0.30949876
220	0xbc9d7a05	-0.019223223
221	0xbdc7f981	-0.09764386
222	0xbff745f3	-1.9318222
223	0xbe5f49d3	-0.21805505
224	0x3ef02a9b	0.46907505
225	0x3e500072	0.2031267
226	0xbfd3f081	-1.6557771
227	0xbd8d3f9e	-0.068969
228	0x3e9b9432	0.30386502
229	0xbdfb8e8b	-0.12283047
230	0xbfb1a0dc	-1.3877215
231	0x3e6c8695	0.23098214
232	0xbbe86ff9	-0.0070934263
233	0xbf063166	-0.52419126
234	0xbf1ec91b	-0.6202561
235	0xbf40f5ba	-0.7537495
236	0xbda0f603	-0.07859423
237	0x3f61c887	0.88196605
238	0xbefafea2	-0.49022394
239	0x3f594bbf	0.84881204
240	0x3eb7b881	0.35882953
241	0xbddcaec9	-0.10775525
242	0xbf2074f2	-0.62678444
243	0xbcca9318	-0.024728343
244	0x3d63c49b	0.05560742
245	0x3dfa01a1	0.12207342
246	0xbf151030	-0.58227825
247	0x3e081b55	0.13291676
248	0x3e4fb673	0.20284443
249	0xbd98ac64	-0.07454756
250	0x3e84ca52	0.25935608
251	0x3e9289bc	0.28620708
252	0x3f10db68	0.5658479
253	0x3ea47986	0.32123965
254	0x3f39f4c7	0.72639126
255	0x3e9799f8	0.29609656

fc1.bias f4 [128]
0	0xbee382f4	-0.44435847
1	0xbead91be	-0.33900255
2	0xbed5cc85	-0.417576
3	0xbf72a4e0	-0.9478283
4	0x3f35d8ae	0.7103375
5	0x3f33f9c0	0.70302963
6	0xbf609707	-0.8773045
7	0xbf007a5e	-0.5018672
8	0xbea5712a	-0.323129
9	0xbf115120	-0.5676441
10	0xbed0f347	-0.40810606
11	0xbf34ca7d	-0.7062147
12	0x3dd4a6c4	0.103833705
13	0xbeff8492	-0.4990583
14	0xbeec8423	-0.46194562
15	0xbf194515	-0.59871036
16	0xbf5b3abb	-0.8563649
17	0xbeef7f6f	-0.46776912
18	0xbf1ed3c5	-0.62041885
19	0xbf4f21c5	-0.80910903
20	0xbf5aff0b	-0.85545415
21	0xbf6c4e40	-0.923069
22	0xbf06db84	-0.52678704
23	0xbf4315df	-0.7620525
24	0xbf8f60bd	-1.1201397
25	0xbea442d1	-0.32082227
26	0xbf659e85	-0.89695007
27	0x3e5ff725	0.21871622
28	0x3e1b12a7	0.15143834
29	0x3ee83c9d	0.45358744
30	0xbf18dab7	-0.5970873
31	0xbf007ab2	-0.5018722
32	0xbf60a2fe	-0.87748706
33	0xbf2f77d8	-0.6854224
34	0xbf8065eb	-1.0031103
35	0x3ec9e392	0.39431435
36	0xbf27ffc6	-0.65624654
37	0xbf43f752	-0.76549256
38	0x3f24655c	0.6421716
39	0xbefed0a3	-0.49768552
40	0xbf2f17fd	-0.6839598
41	0xbe64892b	-0.2231795
42	0xbf241f6c	-0.64110446
43	0xbf369a8e	-0.7132958
44	0xbf1dea2d	-0.6168545
45	0xbf460c50	-0.7736254
46	0xbee5eb8a	-0.44906265
47	0xbee94a4b	-0.45564494
48	0xbee9eca1	-0.45688346
49	0x3ed8c970	0.42341185
50	0x3ee3cd92	0.44492775
51	0xbfbcb754	-1.4743447
52	0x3edf41e8	0.4360497
53	0xbf38793b	-0.72059983
54	0xbf036f1a	-0.513414
55	0xbf31c19d	-0.69436055
56	0xbd539e18	-0.05166444
57	0x3f0330dc	0.5124643
58	0xbf23f0c6	-0.64039266
59	0xbf501e72	-0.81296456
60	0x3e1214ba	0.14265719
61	0xbd472fb9	-0.048629496
62	0xbf1c9110	-0.6115885
63	0xbf9b3911	-1.212679
64	0xbee65968	-0.44990087
65	0xbee74294	-0.45167983
66	0xbf51c786	-0.81945074
67	0xbf19f527	-0.601397
68	0xbf3c99ef	-0.73672384
69	0xbe512e9f	-0.20427941
70	0xbf33d150	-0.7024126
71	0xbf0ef27b	-0.55838746
72	0xbfa0f532	-1.2574828
73	0xbf1ca888	-0.6119466
74	0xbe24b742	-0.16085532
75	0xbedfb829	-0.4369519
76	0xbf775489	-0.96613365
77	0xbeecfa8c	-0.46284902
78	0xbe3177c1	-0.17330839
79	0xbf44e5fd	-0.76913434
80	0xbeb0957d	-0.3448905
81	0x3dc59cea	0.096490696
82	0xbe9623d4	-0.2932421
83	0xbf1dab64	-0.61589646
84	0xbf790b76	-0.97283113
85	0xbf494fc7	-0.78637356
86	0xbecb4b63	-0.39705953
87	0xbeb3b69a	-0.3510025
88	0xbe654993	-0.22391348
89	0x3d9e4585	0.077281035
90	0xbf142ddc	-0.57882476
91	0xbec4307d	-0.38318244
92	0xbf74422b	-0.95413464
93	0xbf891576	-1.0709674
94	0xbe7d8efb	-0.24761574
95	0x3d8ee2d8	0.06976861
96	0xbf097952	-0.53700745
97	0xbe2c6a8e	-0.16837522
98	0xbf45384e	-0.7703904
99	0xbf35a923	-0.7096121
100	0xbf2f49e6	-0.68472135
101	0xbecf9b7a	-0.40548307
102	0xbf14b565	-0.58089286
103	0xbf8300a3	-1.0234569
104	0xbf947bd6	-1.1600292
105	0x3d4a53a8	0.049396187
106	0xbf1d42c6	-0.61430013
107	0xbf3aa030	-0.72900677
108	0xbf6d48a3	-0.9268896
109	0xbf49b4c2	-0.7879144
110	0xbf0f3469	-0.55939347
111	0xbcefaada	-0.029256273
112	0xbf543168	-0.8288789
113	0xbf6495ff	-0.89291376
114	0xbf5280d9	-0.82227856
115	0xbf58b1aa	-0.84646094
116	0xbf2639fb	-0.6493222
117	0xbf8923f1	-1.0714093
118	0xbf3d2557	-0.738851
119	0xbf4ecd79	-0.80782276
120	0xbf07b5db	-0.53011864
121	0xbf40fb8c	-0.7538383
122	0xbe91b53f	-0.28458592
123	0xbf83b783	-1.0290378
124	0x3de687b0	0.11256349
125	0xbe7f8c46	-0.24955854
126	0x3e166217	0.14685856
127	0xbfad523c	-1.3540721

fc2.weight f4 [128, 128]
0	0xbddff49a	-0.10935326
1	0xbda28a4b	-0.079365335
2	0xbd5372f5	-0.051623303
3	0xbdb78862	-0.0896156
4	0xbd53cd0e	-0.051709227
5	0xbdf01059	-0.11721868
6	0xbd80d695	-0.06290928
7	0xbdf485da	-0.11939593
8	0xbd99f7f5	-0.07517997
9	0xbc2106cd	-0.009828282
10	0xbd6839fd	-0.056695927
11	0xbde2e269	-0.110783406
12	0xbd2a309f	-0.041550275
13	0xbcfec2ef	-0.031098811
14	0xbd2c16d2	-0.04201395
15	0xbde7ae18	-0.113125026
16	0xbd47f8b4	-0.048821166
17	0x3d05ce87	0.032667663
18	0xbdd7ac8c	-0.105309576
19	0xbd8d310c	-0.068941206
20	0xbd9cb685	-0.07652
21	0x3cc466b5	0.023974756
22	0x3cc32c62	0.023824874
23	0x3d1d701b	0.03843699
24	0xbc97a440	-0.018510938
25	0x3c9ef2f9	0.019402968
26	0x3b7b451c	0.0038340753
27	0xbc249f17	-0.010047696
28	0x3c87e8ae	0.016590443
29	0x3c41956c	0.01181541
30	0xbd56c3ad	-0.052432705
31	0xbc890f7d	-0.016731018
32	0xbe0675f2	-0.1313093
33	0xbdbbba22	-0.091663614
34	0xbd1f5d5f	-0.038907405
35	0xbdffa1da	-0.124820426
36	0x3cec6501	0.028856756
37	0x3ce9494c	0.028477333
38	0x3d223232	0.03959865
39	0x3d7e06f6	0.062018357
40	0xbcf8ca39	-0.030369865
41	0x3c36361d	0.0111213
42	0xbcc9771e	-0.024592932
43	0xbd0a17aa	-0.033713974
44	0x3c87c409	0.016572969
45	0xbcfa7445	-0.03057302
46	0xbdab4f12	-0.08364691
47	0xbc8efbc3	-0.017454034
48	0xbd257472	-0.040394254
49	0xbd8a76b9	-0.06760926
50	0xbc7b5e06	-0.015342241
51	0xbddaeaa1	-0.10689283
52	0xbdcf2048	-0.10113579
53	0xbd53241a	-0.0515481
54	0xbd9e6b93	-0.07735362
55	0xbdb2b9a9	-0.08726818
56	0xbb632fdd	-0.003466598
57	0xbde9d2fc	-0.11417195
58	0xbdce93b6	-0.100867674
59	0xbdbfbabc	-0.09361789
60	0xbd0152e1	-0.03157318
61	0xbd991bb0	-0.07475984
62	0xbdafec1f	-0.085899584
63	0xbc8b200a	-0.01698305
64	0x3d91ef79	0.07125754
65	0xbd950d04	-0.07277873
66	0x3d1d416c	0.03839247
67	0xbd6f191c	-0.058373556
68	0xbd94190e	-0.07231341
69	0xbd3a8054	-0.04553254
70	0x3c39b7ab	0.011335294
71	0xbd0765a7	-0.033055928
72	0x3d087dc2	0.033323057
73	0xbcaf9086	-0.021431219
74	0xbdbd2def	-0.09237277
75	0xbc45392f	-0.012037559
76	0x3c1d8155	0.009613355
77	0xbd8a2f63	-0.067473195
78	0xbdcd8a95	-0.10036198
79	0xbd916d81	-0.07100964
80	0xbdd797ba	-0.105269864
81	0x3d1fb1d4	0.03898795
82	0x3d685ef1	0.05673117
83	0x3cf0d8a1	0.029400172
84	0x3b5807e2	0.0032963683
85	0xbd109deb	-0.035306852
86	0xbda80d07	-0.0820561
87	0xbd9d752b	-0.07688364
88	0xbd862856	-0.06550662
89	0xbc26f84a	-0.010191033
90	0xbdad642a	-0.084663704
91	0xbd1cd688	-0.03829053
92	0x3ce7d1c6	0.02829827
93	0x3d91242c	0.07086977
94	0x3d6e329f	0.058153745
95	0x3d947661	0.072491415
96	0xbdb5edc5	-0.088832416
97	0xbdf2c4a4	-0.118539125
98	0xbdf1acd7	-0.11800545
99	0xbd83686b	-0.064164005
100	0x3c861203	0.01636601
101	0xbc924909	-0.017857092
102	0xbdcfe58f	-0.10151207
103	0x3c0c61a9	0.008568206
104	0xbdf2113a	-0.11819692
105	0xbd0ea589	-0.034825835
106	0x3ae9b4ee	0.001783041
107	0x3b2150dd	0.0024614849
108	0xbc7dfed7	-0.015502653
109	0x3d0d120a	0.03444103
110	0x3cf7aaa9	0.030232744
111	0x3d266124	0.040619984
112	0xbdc3505c	-0.09536812
113	0x3d4ab4f2	0.04948897
114	0x3d638a9d	0.055552114
115	0xbd819be2	-0.063285604
116	0xbcb3d62d	-0.021952713
117	0xbce6a989	-0.028157013
118	0x3c2bff6c	0.010497909
119	0x3ce52751	0.02797285
120	0x3bbb7fd4	0.0057220254
121	0xbd3a40f2	-0.045472093
122	0xbd81ba73	-0.063343905
123	0xbba7e9e8	-0.0051243193
124	0xbc12921c	-0.008945968
125	0xbdb5b202	-0.08871843
126	0xbc11bece	-0.008895589
127	0xbc3076f5	-0.010770549
128	0xbdbbb3b0	-0.09165132
129	0x3c63514c	0.013874363
130	0x3ce9eb2c	0.028554522
131	0x3db9c6b0	0.090711
132	0x3d12b9ab	0.035821598
133	0xbc27158c	-0.010198008
134	0xbd09fba0	-0.033687234
135	0xba05823d	-0.00050929544
136	0xbca4823e	-0.020081636
137	0xbc0222fd	-0.007942912
138	0x3a05ce73	0.00051043107
139	0x3db37667	0.08762818
140	0xbd3618fd	-0.044457424
141	0x3d6a5fdb	0.05722032
142	0xbba82891	-0.005131789
143	0x3bac1dc4	0.005252572
144	0xbd2c8134	-0.042115405
145	0x3d7b1746	0.061301492
146	0xbd77a225	-0.060457367
147	0x3daf06a9	0.08546192
148	0xbd1158f7	-0.035485234
149	0xbd8d0c66	-0.068871304
150	0x3d2d5338	0.04231569
151	0x3ca5e0da	0.02024882
152	0xbd8a7cd2	-0.06762089
153	0x3ae0138c	0.0017095669
154	0x3d5c8617	0.053838816
155	0xbd4c1e5b	-0.049833637
156	0x3a4881d4	0.00076487404
157	0xbd1b0e7c	-0.03785561
158	0xbae12be5	-0.0017179219
159	0x39ec6eed	0.00045096074
160	0xbdb86e68	-0.09005433
161	0xbd81a382	-0.06330015
162	0x3d48f9f3	0.049066495
163	0xbcec15fe	-0.02881908
164	0xbd746865	-0.05966987
165	0x3b26704f	0.002539653
166	0xbe01b648	-0.12667191
167	0xbd43abf5	-0.047771413
168	0xbda588e7	-0.08082753
169	0xbcdd7838	-0.027034864
170	0xbd5da480	-0.054111958
171	0x3d5bda8d	0.053675223
172	0xbbf2ff8b	-0.007415717
173	0xbd08e362	-0.033419974
174	0xbd1436b3	-0.036184978
175	0xbda30201	-0.079593666
176	0x3db21392	0.08695139
177	0xbdfc508d	-0.12320051
178	0xbba2e831	-0.004971527
179	0x3dde25fc	0.10847089
180	0xbd461dd8	-0.048368305
181	0x3b04a39f	0.0020239127
182	0x3d2d31a1	0.042283658
183	0xbd887057	-0.06662052
184	0xbd20f57f	-0.039296623
185	0xbd540fc9	-0.051772866
186	0xb9d90a30	-0.00041397056
187	0x3d8b3760	0.06797671
188	0xbb5208bc	-0.0032048663
189	0xbd5b5e56	-0.053556763
190	0xbd9a00ed	-0.07519708
191	0xbcc7fae8	-0.024411634
192	0x3c225594	0.009908099
193	0x3d69497c	0.056954846
194	0xbdd90d07	-0.10598188
195	0x388616bd	6.393853e-05
196	0x3d802398	0.06256789
197	0x3d563727	0.05229869
198	0xbd8388d2	-0.06422581
199	0x3d986954	0.07441965
200	0x3dc747a7	0.097304635
201	0xbd317dbc	-0.0433328
202	0xbd4fc006	-0.050720237
203	0x3c6c57bb	0.014425213
204	0xbd0617a3	-0.032737385
205	0xbc9d7cee	-0.01922461
206	0xbd9c3186	-0.07626633
207	0xbd0299a3	-0.0318848
208	0xbc5c7a2a	-0.013456861
209	0xbd8e81f0	-0.06958377
210	0xbcd54481	-0.026033642
211	0xbdeadc29	-0.114677735
212	0xbca90d4c	-0.020636223
213	0xbd0ee135	-0.034882743
214	0x3c8b58b2	0.017010067
215	0xbda48562	-0.08033253
216	0xbd94f4d4	-0.0727326
217	0xbd62d34f	-0.0553773
218	0x3b7421a2	0.0037251492
219	0x3d2f2680	0.042761326
220	0x3db4330f	0.08798801
221	0x3cf3695d	0.029713327
222	0xbdb44043	-0.088013195
223	0xbce5b120	-0.028038561
224	0xbd5363a0	-0.05160868
225	0x3d14fa6d	0.036371637
226	0x3d9a8a23	0.07545879
227	0xbcbdb357	-0.023156805
228	0xbc72fb78	-0.014830463
229	0x3d9081c3	0.07056
230	0x3da19bc3	0.07891037
231	0xbcab58ed	-0.020916427
232	0xbaa6630d	-0.0012694314
233	0xbcb07073	-0.021537995
234	0x3da96ff8	0.082733095
235	0xbc57a485	-0.013161783
236	0x3dabdd5f	0.083918326
237	0x3c1c6c59	0.0095473165
238	0xbddd926a	-0.10818942
239	0xbd6de99d	-0.05808412
240	0x3ba2f8fb	0.0049735284
241	0xbda931b6	-0.08261435
242	0xbda41c5f	-0.08013224
243	0x3d1c3078	0.03813216
244	0xbd0c1ac7	-0.034205224
245	0x3da23db8	0.07921928
246	0x3da10081	0.07861424
247	0x3d7ce778	0.061744183
248	0x3d7fffe5	0.0624999
249	0xbdce16cb	-0.10062941
250	0xbcb1e066	-0.021713447
251	0x3dbcf4ee	0.09226404
252	0xbca6a5e9	-0.020342784
253	0x3ce48de4	0.02789969
254	0xbd9b6b12	-0.075887814
255	0xbd45566b	-0.048178118

fc2.bias f4 [128]
0	0xbd838298	-0.06421393
1	0xbdf824d0	-0.121163964
2	0x3f3605ca	0.71102583
3	0x3f0fbe29	0.56149536
4	0x3c808b2e	0.015691366
5	0xbd081f80	-0.033233166
6	0x3b937d32	0.0045010084
7	0xbd8265cf	-0.06367075
8	0xbd315e14	-0.04330261
9	0x3f3a3c05	0.7274783
10	0xbca1de67	-0.01975937
11	0x3f3da6bd	0.7408255
12	0xbd50d3b1	-0.050983135
13	0x3c330ff0	0.010929093
14	0x3f3271d7	0.69704956
15	0x3f3e0a77	0.7423472
16	0xbe67e666	-0.22646484
17	0xbdc1d789	-0.09464938
18	0x3f293c97	0.6610808
19	0xbe97a752	-0.29619843
20	0xbd86224e	-0.06549512
21	0x3f29f8c3	0.66395205
22	0x3f4d1225	0.8010581
23	0x3f309eee	0.6899251
24	0x3f472c6b	0.7780215
25	0x3f20545e	0.62628734
26	0xbd313176	-0.04326006
27	0xbdc1a744	-0.094557315
28	0x3edde0a3	0.43335447
29	0x3f4fdfc3	0.8120081
30	0xbdea9c88	-0.11455637
31	0xbdc1205b	-0.094299994
32	0xbd4f353b	-0.050587874
33	0x3f3058fc	0.6888578
34	0x3f56bb54	0.8387959
35	0x3f517ed1	0.8183413
36	0x3f57e14b	0.84328145
37	0xbd3f4fd2	-0.046706982
38	0xbcf956e8	-0.030436948
39	0x3e7ea43f	0.24867342
40	0xbdd26cbe	-0.10274647
41	0xbd825d7d	-0.06365488
42	0x3bb9888a	0.0056620287
43	0xbe09b3d6	-0.13447508
44	0xbdfe19c5	-0.12407259
45	0x3f28e92b	0.65980786
46	0x3f69fa4c	0.9139755
47	0xbdc798a4	-0.09745911
48	0x3e938e4d	0.28819504
49	0xbc9db17d	-0.019249672
50	0x3baef229	0.0053389263
51	0xbd356df2	-0.044294305
52	0x3e4f4b86	0.20243654
53	0xbc4bf1e7	-0.012447811
54	0x3ebda723	0.37041578
55	0x3c654802	0.013994219
56	0xbc0e858c	-0.008698832
57	0xbf24f15c	-0.64430785
58	0xbd08ad87	-0.033368614
59	0xbea1a337	-0.31569836
60	0x3f36c8f1	0.7140036
61	0x3efa0a21	0.48835853
62	0x3f502c65	0.8131774
63	0x3f32c488	0.6983113
64	0xbd82f8fe	-0.06395148
65	0x3ca74b6d	0.020421708
66	0xbdb91c5b	-0.090386115
67	0x3f5b4d48	0.85664797
68	0x3f4c6816	0.7984632
69	0xbed852e9	-0.42250755
70	0xbda61ec5	-0.081113376
71	0x3c838ba3	0.016057795
72	0x3f39fd67	0.72652286
73	0x3f60585e	0.8763484
74	0xbc5f34aa	-0.013623396
75	0x3f40312e	0.7507504
76	0x3e456e5d	0.19280382
77	0xbe1da918	-0.15396535
78	0xbe84a0b0	-0.25903845
79	0x3f35f757	0.71080536
80	0x3ce409ef	0.027836768
81	0xbdd57004	-0.10421756
82	0xbdf88ced	-0.121362545
83	0x3f429092	0.76001847
84	0x3f48189c	0.7816255
85	0x3d0240a8	0.031799942
86	0x3f40aeeb	0.75266904
87	0xbe1843e0	-0.14869642
88	0xbde6d76d	-0.11271558
89	0x3f45f17a	0.7732159
90	0xbc9659ff	-0.01835346
91	0x3f6dcfb5	0.9289506
92	0xbd95f217	-0.073215656
93	0x3eab871d	0.3350152
94	0x3eeb6f91	0.45983556
95	0xbe119b7f	-0.14219473
96	0xbae84424	-0.0017720503
97	0x3f513956	0.8172811
98	0x3d298235	0.04138394
99	0x3ee71cdd	0.45139208
100	0x3e69a8de	0.22818324
101	0x3f47c95e	0.78041637
102	0xbdb79fee	-0.08966051
103	0xbd8f63f3	-0.07001486
104	0xbd17dda9	-0.037076626
105	0xbdabecce	-0.08394776
106	0xbd103576	-0.035207234
107	0xbf3022df	-0.6880321
108	0xbd8b6d54	-0.06807962
109	0xbdbc48b2	-0.09193553
110	0x3f41526f	0.7551641
111	0xbdd9a090	-0.10626328
112	0xbd1f7471	-0.038929407
113	0x3f4b39ab	0.7938487
114	0x3f468444	0.7754557
115	0x3d05e54e	0.032689385
116	0x3c085bf0	0.008322701
117	0x3f4044b5	0.7510484
118	0x3f3171d5	0.6931432
119	0x3cca2f0d	0.024680639
120	0xbdcc519b	-0.099765025
121	0xbcc59c88	-0.024122491
122	0xbda113cd	-0.07865105
123	0x3f0bde76	0.54636323
124	0x3c713bf0	0.014723763
125	0x3f44f297	0.7693266
126	0x3f29cab6	0.6632494
127	0xbd93759c	-0.072001666

fc3.weight f4 [2, 128]
0	0xbce9c40e	-0.028535869
1	0xbba5f437	-0.005064513
2	0x3f9ad1b6	1.2095249
3	0x3fabe6f5	1.3429857
4	0x3cab9336	0.02094422
5	0x3c7c789f	0.015409618
6	0x3bb2dbc8	0.005458329
7	0xbc25b0f0	-0.010112986
8	0xbd1f4097	-0.038879957
9	0x3f419ff8	0.7563472
10	0x3c6333d4	0.013867337
11	0x3fb3f54b	1.4059232
12	0x3c2f9a76	0.010717979
13	0xc0a917cb	-5.2841544
14	0x3f4f7ee6	0.81053007
15	0x3fbc9a61	1.4734613
16	0x3ede5d7d	0.434307
17	0x3c4bd927	0.01244191
18	0x3f741d66	0.9535736
19	0x3ddbafb6	0.107268736
20	0xbc30980a	-0.010778436
21	0x3f12dc20	0.57367134
22	0x3fab2d04	1.3373113
23	0x3f91aed8	1.1381483
24	0x3fb1fa3f	1.3904494
25	0x3fcea73d	1.6144787
26	0x3ba85951	0.0051376005
27	0xbd002eb8	-0.031294554
28	0x3fc93ba9	1.5721332
29	0x3f3d8dd8	0.7404456
30	0x3d992469	0.07477648
31	0xbc9525af	-0.018206446
32	0xbbb10bd6	-0.0054030223
33	0x3e974470	0.295444
34	0x3f6f95ec	0.9358814
35	0x3fa2490b	1.2678541
36	0x3f9db433	1.2320617
37	0xba03a4ac	-0.00050217914
38	0xbd6069c0	-0.05478835
39	0x3f90890f	1.1291827
40	0x3c3e4e1e	0.011615304
41	0xbd94f13a	-0.07272573
42	0xbca89845	-0.02058042
43	0xbc368168	-0.011139251
44	0xc028aff3	-2.635739
45	0x400439e6	2.0660338
46	0x3fa7a0d3	1.3095955
47	0x3c224874	0.0099049695
48	0xbfdbcc6e	-1.7171762
49	0xbbcd3048	-0.006261859
50	0x3c9c1859	0.019054579
51	0xbc77fa69	-0.015135386
52	0x3f86db77	1.0535725
53	0x3c379431	0.011204765
54	0x3f9bd68b	1.2174848
55	0xbd2739a0	-0.04082644
56	0x3c90ff3c	0.01769983
57	0xc0271254	-2.6104937
58	0xbc4eb85a	-0.012617195
59	0x400e2c19	2.2214415
60	0x3e0197a7	0.12655507
61	0xbf7a2c61	-0.97723967
62	0x3fb051aa	1.3774922
63	0x3f9e391e	1.2361181
64	0xbc731434	-0.01483636
65	0x3c4942bc	0.012283977
66	0x3d740899	0.059578512
67	0x3f81fff7	1.0156239
68	0x3fa0a7f4	1.2551255
69	0xc0236cfd	-2.553527
70	0xbd1130f3	-0.035447072
71	0xbbd4200f	-0.0064735482
72	0x3fa4eb2c	1.2884269
73	0x3f621800	0.8831787
74	0xbc9ea11f	-0.019363938
75	0x3f91291b	1.1340669
76	0xc0141340	-2.313675
77	0xbe911143	-0.28333482
78	0xbf223311	-0.6335917
79	0x3fb28b10	1.3948689
80	0xbd01426b	-0.03155748
81	0xbd960a6f	-0.07326209
82	0x3d822e39	0.063564725
83	0x3fa10da2	1.2582285
84	0x3f82bb02	1.021332
85	0x3cbe9ccd	0.023268128
86	0x3fa07c20	1.253788
87	0x3e99f05e	0.30066198
88	0x3d7ea481	0.062168602
89	0x3fa05af7	1.252776
90	0xbd490e08	-0.049085647
91	0x3fac12d9	1.3443252
92	0x3cb4ac40	0.022054791
93	0xbf77f499	-0.968576
94	0xbf6cfcda	-0.9257332
95	0x3f38e02a	0.7221705
96	0xbc5f81ae	-0.013641758
97	0x3fb25732	1.393286
98	0xbcc56532	-0.024096105
99	0xbf95a664	-1.1691403
100	0x3f70a3cf	0.9399995
101	0x3f5a61df	0.8530559
102	0xba18b085	-0.00058246433
103	0xbcd80d67	-0.026373578
104	0xbc2d0ebb	-0.010562594
105	0xbcbeda4c	-0.023297451
106	0xbd36ae15	-0.04459961
107	0xc024647d	-2.5686333
108	0xc026068f	-2.5941503
109	0xbd23c504	-0.03998281
110	0x3fb25cb6	1.3934543
111	0x3cf99149	0.030464785
112	0xbd483a13	-0.04888351
113	0x3fabc53a	1.3419564
114	0x3f6a2c61	0.91473967
115	0xbd70e251	-0.058809582
116	0x3d4863dc	0.04892336
117	0x3f906224	1.127995
118	0x3f9cd08f	1.2251147
119	0x3d39157e	0.045186512
120	0xbd37dbf7	-0.04488751
121	0xbc7654cb	-0.015034865
122	0xbc430894	-0.011903901
123	0xbf429d41	-0.760212
124	0xbca30812	-0.01990131
125	0x3fb760e5	1.4326445
126	0x3fb7f0b5	1.4370333
127	0x3ccdb913	0.025112664
128	0x3d849ec0	0.06475592
129	0x3c46fbcc	0.012144994
130	0x3f9003f3	1.1251205
131	0x3f20d8af	0.6283063
132	0xbcce535a	-0.02518623
133	0x3aad63e0	0.0013228618
134	0xbc916af3	-0.017751193
135	0x3cb54f09	0.022132413
136	0xbcfc50ad	-0.030800188
137	0x3f66c06e	0.90137374
138	0xbbddf64c	-0.0067737456
139	0x3f8eef7c	1.1166835
140	0xbd8d28c8	-0.06892544
141	0xc093eedb	-4.622907
142	0x3fc81b12	1.5633261
143	0x3f93ec8f	1.1556567
144	0xbf3df5b1	-0.7420302
145	0xbc61006c	-0.013733011
146	0x3f8d08ad	1.1018273
147	0x3fe41e82	1.782181
148	0xbc3f9609	-0.011693486
149	0x3f7f4221	0.9971028
150	0x3f9d4ef0	1.2289715
151	0x3f9c779e	1.2224004
152	0x3f50c17a	0.8154522
153	0x3f8e7c89	1.1131755
154	0xbd1014de	-0.03517615
155	0xbd04ea62	-0.032450087
156	0xbd056437	-0.032566275
157	0x3f6d9ad3	0.9281437
158	0x3c69393a	0.014234835
159	0xbc4452ad	-0.011982602
160	0xbd1ea375	-0.038730104
161	0x3fbbdb19	1.4676238
162	0x3f276e47	0.65402645
163	0x3f961251	1.172434
164	0x3fa10123	1.2578472
165	0x3e097250	0.13422513
166	0x3cae3706	0.021266472
167	0xbf7a73ba	-0.97832835
168	0x3c04e0c1	0.008110226
169	0xbc95c8de	-0.018284258
170	0x3d3ba87b	0.045814972
171	0xbd0a5bee	-0.033779077
172	0x3fc54c96	1.5413997
173	0x3f0ad399	0.5422912
174	0x3f8896cd	1.0671021
175	0xbcc5072b	-0.02405127
176	0x3f9f8634	1.246283
177	0xbbd68e96	-0.0065477593
178	0x3aacc91a	0.0013182492
179	0xbd04f3b2	-0.03245897
180	0xbfc18d96	-1.5121334
181	0x3d3a1efa	0.045439698
182	0xbf10c378	-0.5654826
183	0xbc973ab4	-0.018460609
184	0xbcfaeeec	-0.030631505
185	0xc02f3521	-2.7376177
186	0xbd29ace5	-0.04142465
187	0xc017bdc6	-2.3709579
188	0x3f714a97	0.9425444
189	0x3fb0ee27	1.3822678
190	0x3f8f5b05	1.1199652
191	0x3f973dec	1.1815772
192	0x3c8ff030	0.017570585
193	0xbd816315	-0.063177265
194	0x3cc8c2e3	0.024506992
195	0x3f43fc4b	0.76556844
196	0x3fc4cf45	1.5375754
197	0xc039541d	-2.8957589
198	0x3d14693e	0.03623318
199	0xbd3f3846	-0.046684526
200	0x3f5e808b	0.8691489
201	0x3f5508e0	0.8321667
202	0xbc3ca2d4	-0.011513431
203	0x3f2992bd	0.6623953
204	0x3f95d2a7	1.1704911
205	0xbf8ba672	-1.091017
206	0x3f5d6360	0.8647976
207	0x3f70ee8a	0.9411398
208	0xbd40d5aa	-0.047078766
209	0xbcc9a4d0	-0.024614722
210	0xbd6c71a1	-0.057725552
211	0x3ef0d1f2	0.47035176
212	0x3fb0e3cf	1.3819522
213	0xbd52d08c	-0.051468417
214	0x3f3e5f87	0.74364513
215	0xbc378e58	-0.011203371
216	0xbcaf14b2	-0.021372173
217	0x3f6154ac	0.88019824
218	0xbbc2cfc2	-0.005945177
219	0x3f97ffe9	1.1874973
220	0xbd4986ec	-0.049200937
221	0x3f877a6a	1.0584233
222	0x3fb2f266	1.3980224
223	0xbf1b908d	-0.6076744
224	0x3c87fa9a	0.016598988
225	0x3f910390	1.1329212
226	0xbb9ecbee	-0.0048460877
227	0x3fa25734	1.2682862
228	0xbfe8069a	-1.8127015
229	0x3f828961	1.0198175
230	0x3c30fd62	0.010802599
231	0x3d4f3fcc	0.05059795
232	0x3d23c314	0.039980963
233	0xbb0532fb	-0.0020324576
234	0x3cf9c42e	0.030489054
235	0xc028fe8c	-2.6405363
236	0xc0e5b93d	-7.178862
237	0x3d46eb6e	0.048564367
238	0x3f879029	1.0590869
239	0xbca2b769	-0.019862847
240	0x3c8558b6	0.016277652
241	0x3f8adfc4	1.0849538
242	0x3f1da1e5	0.61575156
243	0xbc4a6c78	-0.0123549625
244	0xbd706d71	-0.05869812
245	0x3f3fb1b5	0.74880534
246	0x3f69e321	0.91362196
247	0xbd6fea1a	-0.058572866
248	0xbcabb05a	-0.020958114
249	0xbd681a2f	-0.056665596
250	0xbd9139fd	-0.070911385
251	0x3f3457fa	0.7044674
252	0x3b6332d6	0.0034667752
253	0x3f87bf81	1.0605317
254	0x3d34df75	0.044158418
255	0x3c716b5c	0.014735069

fc3.bias f4 [2]
0	0x3f5ccfdb	0.8625466
1	0x3f11f469	0.57013565
